docs/onnx_files/alexnet_conv1.onnx (onnx, 93510 bytes, 2 tensors)

features.0.weight f4 [64, 3, 11, 11]
00000000: 56f9 f23d 15a7 c03d 8773 c33d 3a59 d73d
00000010: 8ac2 d23d f2ac 893d 46b5 4e3d 9e4f 4d3d
00000020: bea5 643d 90be b03c e9a5 4c3d f45b 993d
00000030: 0280 1f3d 5500 593d 108e 9b3d e30a 943d
00000040: c94e 953d ec0e 553d 601f de3c 819b d23c
00000050: a61e 39bc d047 883b 5978 9a3d 43d6 1e3d
00000060: c9fe 603d 5296 643d 9637 573d 40e2 4c3d
00000070: 7b17 433d 7423 cf3c e791 323d 7186 273c
00000080: 1819 593c 6538 903d e114 573d fc37 813d
00000090: 1d94 7e3d 1028 713d ddff 1d3d 6477 383d
000000a0: a92c 1c3d 107c 3b3d 5dd0 fb3a ec33 423b
000000b0: 20d2 b23d 088c 993d ffb0 923d f5e6 aa3d
000000c0: d6a5 c13d 06f3 853d 6d58 093d 1a5a ac3c
000000d0: 10b8 b43c 656b 2ebc fa67 0cbd 9344 c43d
000000e0: 0541 cb3d 7ff5 cd3d c1c9 de3d 53a8 943d
000000f0: 45c5 133d 7130 f5bb 6280 30bd 9c31 1bbd
00000100: e979 68bd 9139 65bd 0d83 eb3d 0780 ec3d
00000110: c161 db3d 7461 bb3d 6a86 3e3b 974d b8bd
00000120: bff3 e7bd 0165 0ebe a7ac ffbd 9bf8 acbd
00000130: 0698 98bd 8886 c33d 94fe e13d 5cf3 a83d
00000140: ee84 2c3d c451 73bd 4a48 23be 564b fdbd
00000150: bbe1 21be 2732 28be b10f ecbd 5c23 bebd
00000160: cdc7 be3d 1b73 d43d e655 8a3d 72a8 c73c
00000170: 41b4 8ebd 1d20 3cbe 86f9 0abe ea50 3dbe
00000180: d8a1 4fbe 9a79 03be dbc7 e5bd e25a 323d
00000190: e3f2 843d c320 143d f7da 983b d4c8 b8bd
000001a0: 4696 46be 8404 7abe d2be 79be b055 4fbe
000001b0: 8bf8 e8bd 3f88 dbbd 3206 423d 9916 803d
000001c0: 46d0 ca3c 4a1d a0bc d5c8 8abd b3e0 efbd
000001d0: c621 0fbe 15f2 26be bc92 f2bd 8cb8 c3bd
000001e0: 8fce abbd e9c0 94bd 598d 6dbd ab31 a5bd
000001f0: 67ed a6bd bdd2 8abd f07e b8bd 4e05 91bd
00000200: 905b e5bc 6415 1eba ac55 cfbc c3a8 d03c
00000210: e165 8dbd ce5d 8abd 2766 9cbd 7c5d 40bd
00000220: 5d1e 26bd 7624 86bd d4f3 3cbd 8b2e 02bd
00000230: 18d0 81bb 590e f9bc 47a9 2b3c a4cf cbbd
00000240: ec4a afbd 6978 d7bd 54b8 bdbd cfd6 afbd
00000250: aa19 ccbd 95a3 b0bd cb0c 90bd 07cd d9bc
00000260: ac97 babc 6abf d93b 6cd2 c1bd 7167 a0bd
00000270: cbb3 d7bd dae4 e2bd 6cda d0bd 8e3d fdbd
00000280: 38ba f7bd 0b36 afbd 46da 18bd 8be0 15bd
00000290: d53b efbb ea06 d1bd adcf 8dbd 8c04 fbbd
000002a0: aa72 dbbd 2f85 cbbd 7745 d1bd c838 debd
000002b0: ecee b4bd 2888 60bd 8cef 18bd 8023 d639
000002c0: fc5d 0fbe 91ce c2bd 5928 ffbd 407c f8bd
000002d0: f36c debd 0904 b1bd f9de 1abd de98 4cbd
000002e0: 06fd b9bb 8cb8 bf3c 3be3 423d fc34 41be
000002f0: 1ef2 f9bd 73c2 20be 49e1 d8bd 7eee c9bd
00000300: 60d3 48bb 3330 0c3e 600e 153e df7e ed3d
00000310: 7e9f ec3d 89b6 bb3d 1a64 39be 7b9b 09be
00000320: b8d3 1ebe 3d01 b8bd ea74 d03a 7a10 323e
00000330: 9814 f13e 4dc7 e53e f523 903e 9784 413e
00000340: 7b45 dc3d acd6 1abe 7dba b5bd 351e c6bd
00000350: bbef dcbc f6fe cd3d 2060 983e 406f 123f
00000360: 7d8b fc3e fdf7 9d3e 5c4c 393e cea3 ac3d
00000370: ad86 12be 070e 9bbd 9ee5 93bd b512 41bc
00000380: 7f00 8f3d 753e 293e b6f4 8d3e 3169 813e
00000390: e810 513e 946a 283e 58e6 c23d 3ef9 afbd
000003a0: dd63 24bd 06e8 52bd ac1c 9abc 1d45 103d
000003b0: 3629 003e ae78 2e3e 51ae 343e a070 273e
000003c0: d2c6 173e 98d0 d03d 6c4d c1bc 6b50 0bbb
000003d0: 9d6a e3bc 5ae7 0abc f3f1 f7bc 482b 76bd
000003e0: a0ad 4bbd 2cdd 17ba db97 233d 340e e9bb
000003f0: 42eb 033d 6ac4 8639 710e b83c adee 113c
0.11863963 0.09406868 0.095435195 0.105150655 0.10291012 0.0672244 0.050465845 0.050124757
0.055822127 0.021575242 0.04996291 0.07488242 0.038940437 0.052978832 0.07595456 0.07228639
0.07290418 0.052016184 0.02711457 0.025708916 -0.011298811 0.0041589513 0.07542486 0.038778555
0.054930482 0.05580742 0.052543245 0.050020456 0.047629815 0.02528546 0.043596175 0.010224924
0.013250612 0.070420064 0.052510146 0.06309506 0.06215297 0.058876097 0.03857409 0.045035735
0.03812853 0.045772612 0.0019211877 0.0029632999 0.087314844 0.07497412 0.071626656 0.08344833
0.09455459 0.06540494 0.033531595 0.021039058 0.022060424 -0.010645722 -0.034278847 0.09583392
0.09924511 0.1005659 0.10878325 0.07258668 0.036076803 -0.0074825813 -0.043091185 -0.037889108
-0.056756888 -0.055963103 0.11499605 0.11547857 0.107120045 0.09149447 0.0029071816 -0.08999174
-0.11325788 -0.13905717 -0.12484103 -0.08445855 -0.07450871 0.09547144 0.11034885 0.08249542
0.04211896 -0.05940415 -0.15945545 -0.12367885 -0.15808766 -0.16425382 -0.115264304 -0.09284088
0.09315453 0.10373517 0.06754665 0.024372313 -0.069679745 -0.18371625 -0.13571748 -0.18487898
-0.20276582 -0.12839356 -0.1121976 0.043543704 0.064916395 0.036164057 0.0046647745 -0.0902268
-0.19393262 -0.24415785 -0.24389198 -0.20247531 -0.11375531 -0.10719346 0.04736919 0.0625431
0.024757516 -0.019545216 -0.06776587 -0.1171278 -0.13977727 -0.16303284 -0.118443936 -0.09556684
-0.08389007 -0.07263357 -0.057996128 -0.08066114 -0.0815075 -0.067784764 -0.090085864 -0.0708109
-0.027997762 -0.0006030409 -0.025309406 0.025471097 -0.069041975 -0.06756173 -0.076366715 -0.046964154
-0.0405563 -0.06549923 -0.04613097 -0.031782668 -0.0039615743 -0.03040235 0.010477371 -0.09951714
-0.08559212 -0.10521013 -0.092636734 -0.08585893 -0.099658325 -0.08624951 -0.0703369 -0.026587022
-0.0227774 0.006645133 -0.09463963 -0.0783223 -0.1053234 -0.11078806 -0.10197911 -0.12365256
-0.12096065 -0.0855523 -0.037317537 -0.036591094 -0.0073008337 -0.10206397 -0.06924377 -0.122567266
-0.1071523 -0.09937512 -0.102183275 -0.10850674 -0.08834633 -0.05481735 -0.037337825 0.0004084371
-0.14000696 -0.09512056 -0.124588676 -0.12133074 -0.10860624 -0.08643348 -0.0378103 -0.049950473
-0.0056759147 0.023403428 0.047579985 -0.18867868 -0.12204383 -0.15699176 -0.10589845 -0.09859942
-0.0030643567 0.13690262 0.14556265 0.11596464 0.11553858 0.09165675 -0.18104592 -0.13438217
-0.15510452 -0.08984611 0.0015903984 0.17389098 0.47086024 0.44878617 0.28152433 0.18898235
0.1075544 -0.15120953 -0.088734604 -0.0967373 -0.026969781 0.100583956 0.29760838 0.57201004
0.4932517 0.30853263 0.18095535 0.08429681 -0.14309187 -0.07571035 -0.072215304 -0.011784245
0.069825165 0.16527732 0.27725762 0.25275567 0.20416605 0.16446906 0.09516591 -0.08592461
-0.0401343 -0.051490806 -0.0188125 0.03522216 0.1251572 0.17038223 0.17644621 0.16351557
0.14821938 0.10196036 -0.023596488 -0.002125765 -0.027760798 -0.00847801 -0.030266738 -0.06009987
-0.04972613 -0.000579315 0.039939743 -0.007112289 0.03220678 0.00025704812 0.022467824 0.008907002

features.0.bias f4 [64]
00000000: b375 78bf 35a5 33c0 8dce 17bd 47ea a2bd
00000010: 4a69 edbd 8081 ce3c 96f8 99bd 6085 b5bf
00000020: be9b d23f 57b1 cabd ea90 83bc 6f4b 03be
00000030: 6dd6 86bd cc73 0dbd 9836 98bd ae1a a6bf
00000040: 7cf5 4ebd 192e 463c 7b88 cfbd d526 98bf
00000050: d444 0dbe f97e 49bd 39a2 a1bd 5cf3 25bd
00000060: d434 c4bd e174 90bd 97fc f7bf ab1c aebd
00000070: 1e1c 0ebe 2e83 49be 94ff 02be 789b 00c0
00000080: 85e1 42bd d68a 77bd 9ba2 0fbd 29c3 c4be
00000090: ea10 32c0 f415 293f f76b 29be 2247 08c0
000000a0: 934e 5e3d 7ed0 e0bc 4c62 2ebe 65d0 72bd
000000b0: 0fcd d7be b03c f8bf a4cd 9abf 084b 7b3c
000000c0: d265 ddbd fb58 cbbc 4be3 19be a400 edbf
000000d0: 0622 bebd 6bff 90bc 4b50 8fbd a154 6ebd
000000e0: 991a 81bd 26c1 93bd 9f46 a2bf 7ac4 f0bd
000000f0: b989 34bd b1d6 a6be aa7f 4f3d f97d 6fbc
-0.97054595 -2.8069584 -0.037062217 -0.07954841 -0.11592348 0.025208235 -0.07518117 -1.4181328
1.6453779 -0.09897106 -0.016060311 -0.12821744 -0.06583867 -0.03453426 -0.07432288 -1.2976892
-0.05052708 0.0120959515 -0.101334535 -1.188685 -0.13795787 -0.049193356 -0.0789227 -0.04051529
-0.09580389 -0.07053543 -1.9373959 -0.08501562 -0.13877913 -0.19678947 -0.12792808 -2.009489
-0.047578353 -0.06043514 -0.035067182 -0.38430145 -2.7822824 0.6604912 -0.16545092 -2.1293416
0.054274153 -0.027443167 -0.17029685 -0.05928077 -0.42148635 -1.939352 -1.2094007 0.015337713
-0.10810436 -0.024822703 -0.15028112 -1.851582 -0.09283833 -0.017699918 -0.069977365 -0.058186177
-0.06303901 -0.072145745 -1.2677802 -0.11756225 -0.044076655 -0.32585672 0.05065886 -0.014617437
