docs/onnx_files/resnet18_conv2.onnx (onnx, 185917 bytes, 3 tensors)

layer1.0.conv1.weight f4 [64, 64, 3, 3]
00000000: 14e7 6b3d 51cb c2bd 2412 a6bc c1b0 98bd
00000010: 739f 4cbf adf1 59be ed49 863d 72b3 c5bd
00000020: 966b 46bc a231 e5bb c1bb 693c e456 123a
00000030: 3ae9 283d 931f 25be 461e bebc f386 573b
00000040: 3e34 eb3b 4cd0 923d 945d 22b1 7ca9 28b3
00000050: 3b9c 0db3 e0b7 ba32 7e1b 0f32 097b 5732
00000060: 6388 4332 f158 1732 7231 8532 21b0 a53a
00000070: a8e3 a7bb db06 e43b 7841 aebc d7cf 8bbd
00000080: 22c8 80bc e913 d43c 9053 6fbc 2085 aebb
00000090: d093 a9b1 df1d b7b1 a63c 4631 f0e2 4eb1
000000a0: c4bd cbb0 56db aab1 3460 01b1 dc5e f42f
000000b0: f2a4 a62f f0d4 343d cdfc 703c 118b 84bc
000000c0: 1226 503d 5ca9 cc3d 82b7 4b3d 13f1 55bc
000000d0: 4959 223c 76c4 0a3a a016 1fbc e7a0 18bd
000000e0: d0bd 73bd c976 ed3b 651d ffbc e841 45bc
000000f0: 1197 60bb 3119 f53c 3b55 663b 53cd c3b2
00000100: 04bc abb2 039b 4132 087d e6b2 7805 54b2
00000110: 5e78 9a32 9064 34b2 1bf7 d330 a91a bd32
00000120: d062 d63c cb40 5a3b c9c3 baba 4628 8e3d
00000130: 9aa8 c63b cae4 203c 2e09 653d 64bd eb3c
00000140: 5e74 c03c b401 a031 6abb 6bb4 eee0 3db2
00000150: a7c6 91b3 4f95 6db4 2870 bc33 de78 3f34
00000160: 5b24 8633 0dea a734 0468 6f3c 85e6 823d
00000170: fa48 3dbd 0238 ce3d 55ce 85be dbfb 08be
00000180: d239 5d3c 6a80 8a3d 37fc 4dbd 4f15 92b8
00000190: 15fe ab3d 1475 243d c036 2d3d f139 343d
000001a0: 5036 353d f812 623d bd71 d13c 4541 1a3d
000001b0: 3e53 f5bc 6ff8 88bd e668 96bc 0582 f9bc
000001c0: 32f3 21be 1262 54bd 809d cc3a c8d7 05bd
000001d0: b268 c93c 94f7 0bb5 a684 37b5 155e b732
000001e0: c7da c9b4 8f70 3db5 eeb0 3835 c170 7835
000001f0: 55eb 8535 c233 d835 d9ee 593b fc2a 5bbc
00000200: 7eb4 2bbd 2181 dabc dc94 a83d 01e1 9dbc
00000210: 88aa 3fbd b92f 163d 59b6 75bd 44b5 d13c
00000220: 5517 9d3c 15d6 403d 47a3 ea3b 4c30 8dbd
00000230: 6a48 65bb b6b0 053c 7f02 6e3b 7d6d 883c
00000240: 18ea 163b 54c2 cc3c aa6c e2bc 8a84 67bc
00000250: 23e0 6ebc 0176 3e3c 141a 863b 8b38 963d
00000260: 9997 673d ebe0 0b3c af11 4b3b bae3 0ebc
00000270: aa54 033c ffd0 76bc da1f a2ba 2898 823c
00000280: b5c3 993b a0fd 9c3c 86b1 833c 7ab9 46bc
00000290: ebba b7bc 9d6a 0abc 521c 82bd 8246 ceb8
000002a0: eab0 173c 2010 83b9 5bdd 963b d01e 593c
000002b0: 9bc1 453c 8912 883d e00c 803d 8f64 d4bd
000002c0: 1aab 3ebc f68f 3bbc 1166 a0bd 5bff 33bc
000002d0: 4d1a 33bd 17ad abbd d9c7 493c e1dd 4dbd
000002e0: 30af b13b ae54 15bc 7cc9 39bd 2245 60bc
000002f0: ee90 47bd 4904 8a3c 9c77 e53d 6192 443d
00000300: 721f 13bd cfff aebb 15a5 1b3d 6b8d 39bd
00000310: 93ca babb 7e7f e03c bdd7 1ebc ec06 90ba
00000320: a9c8 5ebd 31c9 47bd 9cea b63c 9603 3fbd
00000330: 23fc d8bc 186d e3bc 39e6 81bd 3f77 9f3d
00000340: 9f71 ed3c a2d0 8b3d d4c9 a93c 50b4 5ebd
00000350: 672e 9b3c 0553 2b3d e040 213d 8a3f 743c
00000360: b171 cc3c 2c8b 1abd 612c 99bd 66ff b73d
00000370: eb09 d3be 0441 31bd 17c9 cabc a7ca 3e3d
00000380: 354d f03c 66ba 30bd de24 333d 3359 8dbd
00000390: 45de afbb d4ca f03c 7204 e7bc 0846 4a3d
000003a0: 9236 20bd a483 92bb aa78 99ba 749f 143d
000003b0: 4752 7f3d 51f6 31bd 4889 f9bd b7b7 133d
000003c0: f526 963b bc83 303d 98a7 a73b 2eea 153d
000003d0: 4758 e9bb 1cb8 80bb 9700 5dba f86e a5bd
000003e0: ea80 efbb 6643 1e3d a2c9 273d 1a84 473d
000003f0: 75cb 00bd 5af3 1e3d c253 31bc 9890 80bd
0.05759342 -0.09511436 -0.020272322 -0.07455588 -0.799308 -0.21283598 0.06557069 -0.09653367
-0.012110611 -0.006994442 0.014265955 0.0005582406 0.041238047 -0.16125326 -0.023207795 0.0032886832
0.0071778586 0.07168636 -2.3627296e-09 -3.9269693e-08 -3.297121e-08 2.1736867e-08 8.3299465e-09 1.2542622e-08
1.1381505e-08 8.80958e-09 1.5505723e-08 0.0012640991 -0.0051235743 0.006958825 -0.021271452 -0.06826752
-0.01572043 0.0258884 -0.014607325 -0.0053259283 -4.9353517e-09 -5.329397e-09 2.8847267e-09 -3.0105944e-09
-1.4824129e-09 -4.972587e-09 -1.8826656e-09 4.4450743e-10 3.0312425e-10 0.044148386 0.01470871 -0.016179593
0.050817557 0.0999324 0.049735554 -0.013057965 0.009908983 0.0005293557 -0.009709984 -0.037262823
-0.05950719 0.0072468263 -0.031141946 -0.012039639 -0.003426973 0.029919239 0.0035146016 -2.2794358e-08
-1.999252e-08 1.1269324e-08 -2.6832382e-08 -1.2341268e-08 1.7982696e-08 -1.0500244e-08 1.5422502e-09 2.201462e-08
0.026170164 0.003330278 -0.0014249022 0.06941275 0.0060625793 0.009820173 0.055916958 0.028776832
0.023492988 4.6568065e-09 -2.1954261e-07 -1.1052391e-08 -6.788223e-08 -2.2126663e-07 8.774833e-08 1.7832232e-07
6.246474e-08 3.1276468e-07 0.014612202 0.06391624 -0.046212174 0.100692764 -0.2613398 -0.13377325
0.013502555 0.06762774 -0.05028936 -6.9657915e-05 0.08398072 0.040150717 0.04228854 0.04400057
0.04424125 0.05519387 0.02556693 0.037659902 -0.02994692 -0.0668801 -0.018360566 -0.030457506
-0.15815428 -0.05185134 0.0015610904 -0.03267649 0.024586055 -5.214181e-07 -6.836584e-07 2.1346787e-08
-3.759835e-07 -7.057178e-07 6.880281e-07 9.255128e-07 9.977763e-07 1.6108318e-06 0.0033253937 -0.0133769475
-0.041920178 -0.026672902 0.08231518 -0.01927233 -0.04679349 0.036666606 -0.059988353 0.02559913
0.019176165 0.047079165 0.0071605775 -0.068939775 -0.003498579 0.008159807 0.0036317406 0.01665377
0.0023027714 0.024995007 -0.027639706 -0.014130721 -0.014579806 0.011624814 0.004092464 0.073350035
0.05654106 0.008537511 0.0030985882 -0.008721286 0.008015791 -0.015064477 -0.0012369112 0.015941694
0.0046925195 0.019163907 0.01607586 -0.012129182 -0.022427997 -0.00844827 -0.06353058 -9.8359786e-05
0.009258488 -0.0002499828 0.0046040243 0.013251975 0.012070085 0.0664416 0.06252456 -0.103707425
-0.0116374735 -0.011447897 -0.078319676 -0.010986174 -0.043726254 -0.08382624 0.012315714 -0.05026043
0.0054224953 -0.0091144275 -0.045358166 -0.013688358 -0.0487222 0.016847746 0.11204454 0.04799116
-0.03591866 -0.0053405534 0.03799923 -0.045300882 -0.0057004183 0.027404543 -0.009694991 -0.0010988391
-0.054390583 -0.048775855 0.022328667 -0.04663428 -0.026487416 -0.02776198 -0.063427396 0.07786416
0.028984843 0.06826903 0.020726122 -0.05437118 0.018943025 0.04182722 0.03936851 0.014907727
0.024956556 -0.03773038 -0.07479168 0.0898426 -0.41218504 -0.043274894 -0.02475409 0.046579983
0.02933369 -0.043146513 0.04373633 -0.06901779 -0.0053670728 0.029393591 -0.028200362 0.049383193
-0.039114542 -0.004471259 -0.0011708934 0.03628488 0.062334325 -0.043447796 -0.121843874 0.036063876
0.0045822808 0.04309438 0.0051164143 0.036600284 -0.007121119 -0.0039281975 -0.0008430569 -0.08077806
-0.007309069 0.038638495 0.040963776 0.048709966 -0.03144403 0.038806297 -0.010823192 -0.06277579

14 f4 [64, 3, 7, 7]
00000000: dc09 1fbb 124e bbba f1fd dcb9 95cb 8e3c
00000010: f909 583c c260 823b a9c1 41bb f129 293b
00000020: 396d 113b c3bc d1bc facb 85bd db60 81bd
00000030: 6a45 f6bc 9a7d 643a 9ef6 d3ba e67a 613c
00000040: 5ff1 8c3d 4a0b 0c3e f1e6 f73d 9287 743d
00000050: d096 723c a8ce e83b a2bc 7fbc 0d57 8ebd
00000060: c03e d1bd e131 81bd 9da9 15b9 4cce 5b3c
00000070: 6524 d2bb 8ee8 743b 5482 8a3c e072 4ebc
00000080: 4ac4 9ebd 8b9c c8bd 9bf3 75bd aea1 e93b
00000090: cd4c 1c3c a7d4 6f3c cbf9 633d 0d66 c53d
000000a0: 3cbd bb3d d66a 1e3d 42aa 51bb ac59 60ba
000000b0: 1bcf b7bb 1262 7bbc ddc3 0fbd 57e4 9cbc
000000c0: ad88 b0ba 01f7 2dbb 5527 cbbb fc2f 04bc
000000d0: a278 0c3c a031 f83b 8eb9 2139 a478 c4bb
000000e0: 6156 2e3c 913a 003c 686f c7bc 0952 93bd
000000f0: db12 95bd fe1e 19bd 539d 9cb9 247c 4cb9
00000100: 4cc8 bb3c 10cd bf3d 8db9 373e 24d4 283e
00000110: e8f2 af3d 1ea5 ed3c 245d b2ba 5465 f5bc
00000120: 66ac c8bd 415b 0dbe ad9d b6bd 20d2 21bc
00000130: 6bf0 6a3c d768 55bc 1479 9fba e6ac ce3b
00000140: 909c 10bd 2e44 dcbd 6c22 08be f259 aebd
00000150: 74c9 fa3b 9811 543c a72a be3c ffc0 973d
00000160: 534e 023e 1a46 e63d 6488 3d3d d1f3 a13a
00000170: 7658 cc3a d2ae 83bb e62f 85bc 4967 0dbd
00000180: 4a63 93bc 0d49 3039 2411 f8b9 6ed7 0bbb
00000190: 44de a13b 2040 ab3c 7f25 aa3c 516d 003c
000001a0: ac69 99bb d608 6b3b c651 8ebb 5a3a f0bc
000001b0: def6 8cbd 72c2 71bd 33a7 f7bc 1d81 d5bb
000001c0: 5547 163b ed28 3b3c 3402 4f3d 5727 cd3d
000001d0: f955 a63d 1810 c73c 2b86 8c3b 9aae c93b
000001e0: 375a c6bb d0eb 3bbd b7b9 7fbd b4cb c8bc
000001f0: 45ec 953c b56e e63c 1169 d8bb 8275 8c3b
00000200: 3c37 bc3c b6b1 693c dbfe dfbc eabf 75bd
00000210: b965 13bd 867c 9e3b 267d 20ba 0d56 10bc
00000220: 443a 5b3c b04d 663d 2b3f 683d 330f e13c
00000230: b864 3639 42b4 3d39 c667 19bb 7575 52bc
00000240: 41cf 0dbd 9241 e0bc 3157 12bc c1db 1fba
00000250: d026 13ba 62bb e439 0839 47ba 9990 a7bb
00000260: 79b4 63bb 07fa d8bb 2235 e83b 49ac f13b
00000270: e601 363c be32 823c 11d3 a33c b0a4 a13c
00000280: 2f4d 8b3c 5fc1 84ba f486 9d39 5a12 aa3b
00000290: b572 f53b 1a33 0b3c 4bc1 353c 708b 843c
000002a0: 0500 05bc 422d 31bc 0b6f f5bb ce45 54bc
000002b0: 3574 84bc 1d5b 1abc 07ff 433b 8526 72bb
000002c0: 5d21 8bbc 4577 9abc ad7c adbc ea29 9fbc
000002d0: e86b 7cbc 2f44 e0bb 3dea 543b 737a 1cbb
000002e0: ee56 c9ba f4d2 8fba 3864 2abb 1d11 53bb
000002f0: 4162 85bb 05d5 813b 1909 443b 7eb8 d83b
00000300: 942e c53b 4ec8 663b 60f5 9f3b 7930 cc3a
00000310: 93e4 8738 eefc db3a 013b be3b 1c08 073c
00000320: 63ff d13b 7aef b63b 30b0 02bb f9b1 c43b
00000330: 4da1 1b3c 7d1b 963c 84d3 f53c 4dd2 213d
00000340: 5833 183d c3da ec3c 0c62 02bc 95ee 4cbb
00000350: db3d 8a3b c3c2 2a3c aab5 9b3c ba1a bb3c
00000360: 190b cb3c 3751 aabc 1397 ccbc d9e4 b7bc
00000370: 1854 e3bc b51d cabc f78c 5ebc 294f 183b
00000380: 59c0 74bc a1b5 0ebd df3f 28bd 1e46 36bd
00000390: 1d3d 21bd 112c f3bc 9f83 69bc 233b b83b
000003a0: 034e 94bb ec92 0fbc 3f58 3abc 78fd 50bc
000003b0: dd1c 1ebc 9b8e e1bb d6ad 3b3c 212c 463c
000003c0: a9cc 643c 9b3e 303c b38f ee3b 01f5 093c
000003d0: 5f71 ba3b 9c5a 14bb 6914 fbba c731 3f3a
000003e0: 9c95 ca3b d1c1 c53b f786 4d3b 4c19 d0bb
000003f0: 1b42 963b 5522 be3b 6891 533c 281e d23c
-0.0024267351 -0.0014290235 -0.0004215087 0.01743106 0.013185971 0.0039788196 -0.0029564893 0.0025812353
0.0022190346 -0.025602704 -0.06533046 -0.06317302 -0.030062396 0.0008716226 -0.001617152 0.013762211
0.068819754 0.13676181 0.121045955 0.059699602 0.014806464 0.0071047135 -0.015608938 -0.06950197
-0.10217047 -0.06308342 -0.00014272933 0.013415884 -0.00641303 0.0037370059 0.016907848 -0.0126006305
-0.07752283 -0.09795483 -0.060046773 0.0071298694 0.009539795 0.014638103 0.055658143 0.09638605
0.09166953 0.038676105 -0.003199235 -0.0008558284 -0.0056094057 -0.015343206 -0.0350989 -0.01915185
-0.0013468467 -0.002654493 -0.006199757 -0.008068081 0.008573683 0.007574275 0.00015423281 -0.005995827
0.0106407115 0.007826463 -0.024345115 -0.07193381 -0.07278987 -0.037383072 -0.00029871854 -0.00019501202
0.022922657 0.093652844 0.17941876 0.16487175 0.085912526 0.029009398 -0.001360808 -0.029955544
-0.097985074 -0.13804342 -0.08916793 -0.009876758 0.014339547 -0.013025484 -0.0012166821 0.006307232
-0.03530556 -0.10755192 -0.13294381 -0.085132495 0.0076534096 0.012943648 0.023213698 0.07409858
0.12725191 0.112438396 0.04627265 0.0012355988 0.0015590328 -0.004018643 -0.016258191 -0.03452233
-0.01799168 0.00016811882 -0.00047315017 -0.0021338123 0.004939826 0.0209046 0.020769833 0.007838563
-0.0046817865 0.003586342 -0.0043432442 -0.0293247 -0.06883024 -0.059023328 -0.030231094 -0.0065156356
0.00229307 0.011423332 0.05053921 0.10017269 0.08121867 0.024299666 0.004288455 0.0061548473
-0.006053235 -0.045879185 -0.06243297 -0.024511196 0.018301139 0.028128961 -0.0066043218 0.004286469
0.022975557 0.014263561 -0.027343204 -0.059997477 -0.035985682 0.0048366217 -0.0006122164 -0.008809579
0.013380591 0.056226432 0.056700867 0.027473068 0.00017394393 0.00018091596 -0.00234078 -0.012845387
-0.03462148 -0.027375016 -0.008931921 -0.00060981145 -0.00056133885 0.0004362716 -0.0007599746 -0.005113673
-0.0034745021 -0.0066216025 0.007086412 0.0073752743 0.011108851 0.015893336 0.019998105 0.01973185
0.017004577 -0.001012843 0.0003004592 0.005190176 0.007490481 0.00849607 0.011093448 0.01617977
-0.00811768 -0.010814013 -0.007490044 -0.012956096 -0.016168693 -0.009421137 0.0029906647 -0.003694923
-0.016983682 -0.0188557 -0.021177614 -0.019429166 -0.015406586 -0.0068440656 0.003248825 -0.0023876696
-0.001536099 -0.0010972903 -0.0025999676 -0.0032206245 -0.0040705507 0.0039621615 0.002991265 0.00661379
0.0060175154 0.0035214606 0.004881546 0.0015578411 6.479877e-05 0.0016783753 0.0058053737 0.0082416795
0.0064086183 0.005582747 -0.0019941442 0.0060026613 0.009498906 0.018323654 0.030008085 0.0395072
0.03715834 0.028912907 -0.0079579465 -0.0031270136 0.0042187995 0.010422411 0.019007523 0.022839893
0.024785565 -0.02079068 -0.024974382 -0.02244799 -0.02775006 -0.024672369 -0.013583413 0.0023240543
-0.014938437 -0.034841184 -0.041076537 -0.044500463 -0.039364923 -0.029684098 -0.014252572 0.005622284
-0.0045259013 -0.008763056 -0.011373579 -0.012755744 -0.009650436 -0.006883455 0.01145502 0.012095482
0.01396481 0.010757114 0.007280314 0.00842023 0.0056897844 -0.0022637015 -0.0019155863 0.0007293489
0.0061823856 0.0060350676 0.0031360963 -0.006350672 0.004585517 0.0058024325 0.0129130855 0.025649145

15 f4 [64]
00000000: 1c98 6b3e 7ec7 833e 4a81 8db5 fde1 23bf
00000010: 1657 8eb2 4d42 253e e606 eb3e e4f4 e6b4
00000020: c082 9a3e cf4e 06b7 8cbd af3e 4300 9d3e
00000030: 9de2 76be 4dba 11b8 5b81 db3d e0b9 5e3e
00000040: 70e8 bd3e 65cc 0cbf eb90 23bf b61a 143f
00000050: d748 9c3e 9504 133f 0d0d fa3e 1514 aa3e
00000060: 5eea 483e 6335 443e 7d3a 1d3e 68da c83d
00000070: fd18 fe3e 7205 cd3c 2893 283e 274c a73e
00000080: 2446 843e 9257 e33e a318 9bbe 939e a4bc
00000090: cd91 83b4 6534 a23e e01a 53b3 42e1 703e
000000a0: 7425 703e 7db5 9f3e 83d8 dd3e c6ac 933e
000000b0: e86e 843e 667b 313f 5d05 d83e 3416 ae3e
000000c0: d2a2 bab3 e37d 803e 93e2 9b3e 9895 1f3f
000000d0: 0b54 c73e faea a73e cf17 cfbe 999a c33e
000000e0: 86de 393e 4906 813e 0749 dbbe 4cd5 5a3e
000000f0: 9596 133f e124 103f 1871 c8be e57e 723e
0.23007244 0.25738138 -1.0542947e-06 -0.64016706 -1.6570578e-08 0.16138573 0.459037 -4.301902e-07
0.3017788 -8.0053715e-06 0.343243 0.30664262 -0.24109884 -3.47442e-05 0.10718032 0.21750593
0.37091398 -0.5499938 -0.63893 0.5785326 0.30524322 0.57428867 0.48838082 0.33218446
0.19620654 0.1916099 0.15354343 0.09807283 0.4962844 0.02502701 0.16462386 0.32675287
0.25834763 0.44402748 -0.30292234 -0.020095145 -2.4506735e-07 0.316806 -4.915171e-08 0.23523429
0.23451787 0.31193152 0.43329248 0.28842753 0.25865865 0.69328916 0.42191592 0.34001315
-8.690917e-08 0.25096044 0.304463 0.62337637 0.38931307 0.3279646 -0.40447852 0.38203886
0.18151292 0.25200108 -0.42829153 0.21370429 0.57651645 0.5630627 -0.39148784 0.23681219
