docs/onnx_files/resnet18_conv1.onnx (onnx, 37904 bytes, 1 tensors)

conv1.weight f4 [64, 3, 7, 7]
-0.010419349 -0.0061356076 -0.0018097757 0.07484142 0.05661485 0.017083326 -0.012693884 0.011082706
0.009527573 -0.10992692 -0.28050068 -0.27123755 -0.1290749 0.0037423698 -0.00694335 0.05908897
0.29548222 0.587196 0.5197189 0.25632423 0.06357254 0.030504562 -0.06701802 -0.29841137
-0.4386757 -0.27085286 -0.00061281794 0.057601996 -0.027534772 0.016045084 0.07259498 -0.054101646
-0.33284944 -0.4205756 -0.25781482 0.03061257 0.040959746 0.06284967 0.23897195 0.41383994
0.39358923 0.16605844 -0.013736129 -0.0036745563 -0.024084358 -0.06587708 -0.15069947 -0.08222974
-0.005782776 -0.0113972435 -0.026619071 -0.034640845 0.03681168 0.032520656 0.0006622089 -0.025743483
0.045686606 0.03360344 -0.10452738 -0.3088526 -0.31252816 -0.16050671 -0.001282568 -0.0008372971
0.09841996 0.40210474 0.7703464 0.7078879 0.36887115 0.124553785 -0.00584272 -0.12861612
-0.42070544 -0.59269863 -0.38284844 -0.042406518 0.0615678 -0.055925783 -0.005223906 0.027080523
-0.15158677 -0.46178132 -0.5708031 -0.36552206 0.032860424 0.055574417 0.09966956 0.31814718
0.54636455 0.48276174 0.19867471 0.005305126 0.0066938116 -0.017254312 -0.06980563 -0.14822392
-0.077248484 0.00072182936 -0.0020315018 -0.009161665 0.021209473 0.0897553 0.08917666 0.033655394
-0.020101562 0.015398199 -0.01864801 -0.12590756 -0.29552722 -0.2534206 -0.12979922 -0.027975317
0.00984545 0.049046837 0.21699347 0.43009815 0.34871778 0.10433224 0.018412767 0.026426248
-0.025989968 -0.19698535 -0.26806012 -0.10524046 0.07857716 0.12077357 -0.028356096 0.01840424
0.09864709 0.061241552 -0.11739987 -0.25760317 -0.15450692 0.020766359 -0.002628592 -0.037824515
0.05745046 0.24141194 0.24344896 0.11795745 0.00074683985 0.0007767747 -0.010050296 -0.055152524
-0.14864963 -0.117536455 -0.0383498 -0.004415449 -0.0040644747 0.003158903 -0.0055027325 -0.03702647
-0.025157757 -0.047944903 0.05131044 0.053402 0.08043563 0.11507856 0.14479987 0.142872
0.1231247 -0.0073336717 0.002175529 0.0375804 0.054236174 0.061517324 0.080324106 0.117152534
-0.058777526 -0.078300804 -0.05423301 -0.09381094 -0.11707233 -0.06821544 0.021654446 -0.026753753
-0.122973405 -0.13652809 -0.15334032 -0.14068037 -0.11155415 -0.049555685 0.023523701 -0.017288351
-0.011122401 -0.007945128 -0.018825533 -0.02331951 -0.029473552 0.028688742 0.021658791 0.047888335
0.043570902 0.025497768 0.03534571 0.011279828 0.00046918713 0.012152578 0.04203485 0.05967536
0.046402752 0.040422883 -0.01443896 0.04346335 0.06877854 0.1326757 0.21727893 0.28605896
0.26905164 0.2093491 -0.05762094 -0.022641703 0.030546976 0.075465344 0.13762738 0.16537635
0.17946434 -0.15053865 -0.18083149 -0.1625387 -0.2009293 -0.17864472 -0.09835315 0.016827732
-0.10816444 -0.25227386 -0.29742205 -0.3222136 -0.2850288 -0.21493305 -0.10319831 0.040709157
-0.0327706 -0.063450485 -0.08235244 -0.09236026 -0.06987572 -0.049840894 0.08294213 0.08757951
0.10111472 0.07788882 0.052714422 0.060968187 0.041197907 -0.016390737 -0.013870147 0.005280982
0.044764675 0.04369799 0.022707468 -0.04598318 0.03320226 0.042013556 0.09349952 0.18571724
00000000: ebb5 2abc 350d c9bb ff35 edba 7546 993d
00000010: f9e4 673d 55f2 8b3c 02fa 4fbc 3d94 353c
00000020: 8a19 1c3c 5d21 e1bd c99d 8fbe a6df 8abe
00000030: 362c 04be 8c42 753b 0b85 e3bb 4707 723d
00000040: 7249 973e 7a52 163f 4c0c 053f ee3c 833e
00000050: 5232 823d b4e4 f93c be40 89bd 60c9 98be
00000060: 1a9a e0be 3aad 8abe 84a5 20ba 12f0 6b3d
00000070: 9a90 e1bc fb70 833c adac 943d b099 5dbd
00000080: 3e6b aabe af55 d7be 4e00 84be 36c7 fa3c
00000090: 68c5 273d 54b7 803d 10b5 743e d4e2 d33e
000000a0: 8784 c93e 390b 2a3e 800d 61bc d3d0 70bb
000000b0: 8f4c c5bc 90ea 86bd f650 1abe 1168 a8bd
000000c0: 717d bdbb 81bb 3abc 3d10 dabc 8fe3 0dbd
000000d0: d8c7 163d 6134 053d 1698 2d3a ffe3 d2bc
000000e0: e121 3b3d c3a3 093d 7312 d6bd ee21 9ebe
000000f0: b103 a0be df5b 24be d71b a8ba 0f7e 5bba
00000100: 6790 c93d ace0 cd3e 6c35 453f 2438 353f
00000110: aedc bc3e 0e16 ff3d 4a74 bfbb f2b3 03be
00000120: b466 d7be 19bb 17bf b604 c4be 75b2 2dbd
00000130: 842e 7c3d 6f12 65bd 4d2d abbb f9d7 dd3c
00000140: 9039 1bbe 9a6e ecbe 2720 12bf b525 bbbe
00000150: a798 063d 00a2 633d 8e1f cc3d 30e4 a23e
00000160: 8cde 0b3f 8c2c f73e 6271 4b3e 9fd6 ad3b
00000170: c357 db3b ea58 8dbc 41f6 8ebd 03c8 17be
00000180: 7434 9ebd 2639 3d3a f222 05bb cf1a 16bc
00000190: 7dbf ad3c a0d1 b73d 41a2 b63d 3dda 093d
000001a0: 08ac a4bc ba48 7c3c b6c3 98bc e9ed 00be
000001b0: 584f 97be 58c0 81be 16ea 04be 7e2c e5bc
000001c0: cf4e 213c 56e5 483d 8933 5e3e d335 dc3e
000001d0: 238b b23e 24ac d53d 5fd6 963c dc7b d83c
000001e0: eae8 d4bc 87b6 49be 2d3f 89be 4f88 d7bd
000001f0: 10ed a03d 2258 f73d 0b4b e8bc 7dc4 963c
00000200: 7c07 ca3d 6cd8 7a3d 586f f0bd 90e4 83be
00000210: 1037 1ebe 361e aa3c 7544 2cbb e1ed 1abd
00000220: 2c51 6b3d b134 773e af4a 793e ad93 f13d
00000230: 93c7 433a 78a0 4b3a ffa9 24bc 9de7 61bd
00000240: 9c37 18be f4b6 f0bd ae14 1dbd 79af 90bb
00000250: 492f 85bb 9905 4f3b 4450 b4bb 11a9 17bd
00000260: a417 cebc e061 44bd e52a 523d 0ebc 5a3d
00000270: 70bb a43d 4fae eb3d 6b46 143e 0a4d 123e
00000280: cd28 fc3d 4c4f f0bb 5293 0e3b e8ed 193d
00000290: c026 5e3d 97f9 7b3d f780 a43d abed ef3d
000002a0: b4c0 70bd 2c5c a0bd 6f23 5ebd f31f c0bd
000002b0: 9ec3 efbd 89b4 8bbd aa64 b13c b02a dbbc
000002c0: 7bd9 fbbd 05ce 0bbe 3f05 1dbe 840e 10be
000002d0: 8176 e4bd e7fa 4abd c7b4 c03c 4da0 8dbc
000002e0: bb3a 36bc 482c 02bc 0138 9abc 8f08 bfbc
000002f0: 8572 f1bc a704 eb3c c76d b13c 8f26 443d
00000300: 6777 323d b2e0 d03c aac6 103d 07cf 383c
00000310: 3bfd f539 9b1b 473c bc2c 2c3d 266e 743d
00000320: d010 3e3d 7792 253d 6391 6cbc a006 323d
00000330: c3db 8c3d 24dc 073e 5e7e 5e3e 5276 923e
00000340: 23c1 893e 9c5f 563e ef03 6cbd 187b b9bc
00000350: a73d fa3c 938d 9a3d 31ee 0c3e 6b58 293e
00000360: 80c5 373e ce26 1abe e42b 39be 8c70 26be
00000370: 69c0 4dbe a4ee 36be 606d c9bd 50da 893c
00000380: 5185 ddbd 0a2a 81be b447 98be 2ef9 a4be
00000390: 4bef 91be 6917 5cbe a359 d3bd a5be 263d
000003a0: 773a 06bd 54f2 81bd 65a8 a8bd 6027 bdbd
000003b0: 001b 8fbd f725 4cbd 90dd a93d e35c b33d
000003c0: 3c15 cf3d 2c84 9f3d 14eb 573d c7b9 793d
000003d0: 23bf 283d de45 86bc 9d3f 63bc 160c ad3b
000003e0: 2a5b 373d aafc 323d 0305 ba3c dc58 3cbd
000003f0: 18ff 073d 6816 2c3d ad7c bf3d a92c 3e3e
