docs/onnx_files/resnet18_conv4.onnx (onnx, 481739 bytes, 7 tensors)

layer1.1.conv1.weight f4 [64, 64, 3, 3]
0.01971198 -0.0052562277 -0.0037618864 -0.019634807 -0.012336322 -0.035196014 0.050761323 0.075668074
0.043344118 0.01416026 -0.008609386 -0.010541202 -0.042585723 -0.023814358 -0.054693624 -0.0014017591
0.04672031 0.050897997 0.02155863 0.004163255 -0.009711788 -0.009320097 -0.025432313 -0.02827365
-0.030106843 -0.04822981 -0.026001249 -0.005909075 -0.046111323 0.06910662 0.033158876 -0.01484621
0.056946505 0.032123834 0.03368435 -0.059698075 0.06398904 0.07857579 0.06829233 0.009594716
0.015680496 -0.0033523708 0.012520467 0.025704311 -0.008500072 0.043691203 0.04631509 0.07033447
0.023051722 -0.034453724 0.00020337306 0.018918412 -0.011401659 -0.0069704065 0.020825114 0.005081021
-0.03096225 0.003543809 -0.025394574 -0.041140128 0.018454013 0.01597945 0.014319874 0.027590755
0.004801947 -0.022329837 -0.017366786 -0.023065329 -0.07405823 0.01907431 0.07722915 0.042866603
-0.007555731 0.011685913 -0.023143765 -0.052194197 -0.033893656 -0.007576597 0.013562697 0.10048589
0.038906924 0.039404184 0.045031253 0.041533727 0.024704965 0.016327469 0.025745653 -0.01680804
-0.00953048 -0.0048563667 -0.039113175 -0.08362157 -0.06106942 -0.026085572 0.03240446 0.0176612
-0.050124153 -0.11793717 -0.085699916 -0.013747766 -0.039739065 -0.0905297 -0.013636704 0.12466761
0.080507144 0.026481664 -0.13023885 0.14614251 -0.016389946 -0.067860514 -0.051903464 0.016482329
0.0052959975 -0.064129956 -0.022367012 0.1044519 -0.06215762 -0.0127737885 -0.029340468 -0.032812163
-0.0054512112 -0.006962321 -0.016352428 0.0044391085 0.03614993 0.011318362 0.011444951 0.033169113
-0.01757904 0.029996367 0.010150331 -0.008629241 -0.028159164 -0.015525647 0.055311106 -0.070155315
-0.041158844 0.0010355033 -0.047917902 -0.03018795 -0.0032299242 0.019663112 0.015975168 0.024392534
-0.01964379 0.018727468 -0.0121449 -0.02181099 0.0149345575 -0.014219829 -0.032676235 -0.008113367
-0.017219728 -0.062418487 -0.022055965 -0.07580063 0.017069515 0.1064622 0.04951222 0.021947546
-0.029584656 0.0074730944 0.017589586 0.030229285 -0.03239777 0.03423772 0.09564132 0.0013995738
0.006189242 0.0075651426 0.023820844 -0.059272945 -0.10375927 -0.033685833 -0.015837047 0.0441404
0.0042099454 0.027339548 0.15682319 -0.022511736 0.027123993 0.018017998 -0.0026442576 0.07355109
0.031442896 0.026466405 -0.04843603 0.011058624 0.047092404 -0.03279438 -0.0075568254 -0.05614405
0.0064637973 0.049116343 -0.017080685 -0.018641887 -0.03844244 -0.028334228 0.023684943 0.0029539978
0.00020866106 0.0018280871 -0.09600263 -0.038562205 0.03704767 0.05068546 -0.05804133 0.047517546
0.049080137 0.029266477 0.02112385 -0.017751876 -0.025521068 -0.033564527 -0.033631437 -0.022556083
0.014725734 -0.019973785 -0.014216847 -0.02824304 -0.007813474 -0.02302525 -0.0024114551 0.028971743
0.0004924266 -0.0153618995 -0.026635285 0.012171779 -0.036287848 -0.026070042 0.05673329 0.00028676985
0.009725417 -0.02304645 -0.010475984 -0.0009347935 -0.025307734 -0.03906337 -0.031733394 0.036223907
-0.08002766 -0.22231129 -0.06031638 0.00076313503 0.039310098 0.016522877 0.005818552 0.019199105
-0.012839242 -0.004581306 -0.017151846 -0.01737791 0.0077305553 0.044069756 0.009535314 0.00083057844
00000000: 057b a13c 6f3c acbb fb89 76bb 2dd9 a0bc
00000010: 491e 4abc b229 10bd 1beb 4f3d ddf7 9a3d
00000020: 9a89 313d 6f00 683c 620e 0dbc 01b5 2cbc
00000030: 5e6e 2ebd 5416 c3bc 6c06 60bd 3bbb b7ba
00000040: cc5d 3f3d 6b7a 503d b99b b03c ea6b 883b
00000050: 311e 1fbc 52b3 18bc 6d57 d0bc 249e e7bc
00000060: a0a2 f6bc 9f8c 45bd 9200 d5bc eaa0 c1bb
00000070: 3adf 3cbd c687 8d3d 9ad1 073d 853d 73bc
00000080: bd40 693d 4894 033d 9af8 093d f885 74bd
00000090: b00c 833d 58ec a03d d9dc 8b3d 2833 1d3c
000000a0: 6274 803c 73b3 5bbb a522 4d3c d991 d23c
000000b0: e343 0bbc 8cf5 323d e4b4 3d3d 850b 903d
000000c0: f7d6 bc3c 591f 0dbd 8a40 5539 c9fa 9a3c
000000d0: 06ce 3abc 0268 e4bb 6e99 aa3c b27e a63b
000000e0: 8ba4 fdbc 403f 683b 4808 d0bc 8d82 28bd
000000f0: df2c 973c 56e7 823c e89d 6a3c 0206 e23c
00000100: a759 9d3b 10ed b6bc ca44 8ebc 80f3 bcbc
00000110: d7ab 97bd ba41 9c3c 512a 9e3d e494 2f3d
00000120: 1196 f7bb 4676 3f3c fe97 bdbc 95c9 55bd
00000130: 13d4 0abd 1a45 f8bb 1336 5e3c 8ccb cd3d
00000140: de5c 1f3d 4866 213d b172 383d 451f 2a3d
00000150: 1162 ca3c 2fc1 853c 8ce8 d23c 04b1 89bc
00000160: bb25 1cbc 2822 9fbb 2335 20bd c941 abbd
00000170: ee23 7abd 69b1 d5bc 8aba 043d 39ae 903c
00000180: fc4e 4dbd 0b89 f1bd 7083 afbd 4f3e 61bc
00000190: 6ec5 22bd a367 b9bd 7b6c 5fbc bb51 ff3d
000001a0: eee0 a43d 13f0 d83c 555d 05be 62a6 153e
000001b0: 3544 86bc 74fa 8abd ba98 54bd f305 873c
000001c0: 0c8a ad3b 9156 83bd 063b b7bc e1ea d53d
000001d0: fd98 7ebd 2749 51bc 6c5b f0bc 0c66 06bd
000001e0: 13a0 b2bb 2e24 e4bb 87f5 85bc f175 913b
000001f0: f311 143d a770 393c 9b83 3b3c 56dc 073d
00000200: eb01 90bc f1ba f53c 934d 263c a961 0dbc
00000210: 0cae e6bc 495f 7ebc e68d 623d 97ad 8fbd
00000220: 2d96 28bd bab9 873a 9045 44bd b84c f7bc
00000230: 23ad 53bb 8914 a13c 5bde 823c dad2 c73c
00000240: 03ec a0bc 596a 993c 67fb 46bc f6ac b2bc
00000250: 13b0 743c 49fa 68bc 84d7 05bd eded 04bc
00000260: 6310 8dbc 87aa 7fbd b6ae b4bc 5c3d 9bbd
00000270: 5ed5 8b3c db08 da3d 53cd 4a3d 57cb b33c
00000280: 855b f2bc dce0 f43b 0918 903c 68a3 f73c
00000290: 86b3 04bd da3c 0c3d 99df c33d e771 b73a
000002a0: 20cf ca3b 04e5 f73b ee23 c33c 30c8 72bd
000002b0: bd7f d4bd 28fa 09bd b2bc 81bc 90cc 343d
000002c0: 95f3 893b 30f7 df3c 4296 203e 886a b8bc
000002d0: 2333 de3c 7b9a 933c 484b 2dbb f4a1 963d
000002e0: 44ca 003d 13d0 d83c dc64 46bd 3b2f 353c
000002f0: f7e3 403d 6653 06bd 3f9f f7bb 4ef7 65bd
00000300: 43ce d33b 382e 493d cbec 8bbc dfb6 98bc
00000310: d275 1dbd 2f1d e8bc ed06 c23c dc97 413b
00000320: 07cc 5a39 6d9c ef3a 079d c4bd 67f3 1dbd
00000330: 4cbf 173d 8f9b 4f3d bfbc 6dbd c2a1 423d
00000340: 4108 493d 40c0 ef3c ed0b ad3c 626c 91bc
00000350: 8f11 d1bc f57a 09bd 1ec1 09bd 89c7 b8bc
00000360: 3444 713c 10a0 a3bc c7ed 68bc f35d e7bc
00000370: 1604 00bc 739f bcbc 8109 1ebb 2656 ed3c
00000380: 3116 013a 7ab0 7bbc 3e32 dabc 246c 473c
00000390: 91a2 14bd d790 d5bc 2b61 683d 9959 9639
000003a0: 5b57 1f3c e9cb bcbc 76a3 2bbc ee0c 75ba
000003b0: 2a52 cfbc ea00 20bd e0fa 01bd 855f 143d
000003c0: 8be5 a3bd 92a5 63be 4f0e 77bd 200d 483a
000003d0: a003 213d fc5a 873c 8da9 be3b 7147 9d3c
000003e0: af5b 52bc c81e 96bb 0782 8cbc 1e5c 8ebc
000003f0: 9950 fd3b 7d82 343d 013a 1c3c 2dbb 593a

33 f4 [64, 3, 7, 7]
-0.0024267351 -0.0014290235 -0.0004215087 0.01743106 0.013185971 0.0039788196 -0.0029564893 0.0025812353
0.0022190346 -0.025602704 -0.06533046 -0.06317302 -0.030062396 0.0008716226 -0.001617152 0.013762211
0.068819754 0.13676181 0.121045955 0.059699602 0.014806464 0.0071047135 -0.015608938 -0.06950197
-0.10217047 -0.06308342 -0.00014272933 0.013415884 -0.00641303 0.0037370059 0.016907848 -0.0126006305
-0.07752283 -0.09795483 -0.060046773 0.0071298694 0.009539795 0.014638103 0.055658143 0.09638605
0.09166953 0.038676105 -0.003199235 -0.0008558284 -0.0056094057 -0.015343206 -0.0350989 -0.01915185
-0.0013468467 -0.002654493 -0.006199757 -0.008068081 0.008573683 0.007574275 0.00015423281 -0.005995827
0.0106407115 0.007826463 -0.024345115 -0.07193381 -0.07278987 -0.037383072 -0.00029871854 -0.00019501202
0.022922657 0.093652844 0.17941876 0.16487175 0.085912526 0.029009398 -0.001360808 -0.029955544
-0.097985074 -0.13804342 -0.08916793 -0.009876758 0.014339547 -0.013025484 -0.0012166821 0.006307232
-0.03530556 -0.10755192 -0.13294381 -0.085132495 0.0076534096 0.012943648 0.023213698 0.07409858
0.12725191 0.112438396 0.04627265 0.0012355988 0.0015590328 -0.004018643 -0.016258191 -0.03452233
-0.01799168 0.00016811882 -0.00047315017 -0.0021338123 0.004939826 0.0209046 0.020769833 0.007838563
-0.0046817865 0.003586342 -0.0043432442 -0.0293247 -0.06883024 -0.059023328 -0.030231094 -0.0065156356
0.00229307 0.011423332 0.05053921 0.10017269 0.08121867 0.024299666 0.004288455 0.0061548473
-0.006053235 -0.045879185 -0.06243297 -0.024511196 0.018301139 0.028128961 -0.0066043218 0.004286469
0.022975557 0.014263561 -0.027343204 -0.059997477 -0.035985682 0.0048366217 -0.0006122164 -0.008809579
0.013380591 0.056226432 0.056700867 0.027473068 0.00017394393 0.00018091596 -0.00234078 -0.012845387
-0.03462148 -0.027375016 -0.008931921 -0.00060981145 -0.00056133885 0.0004362716 -0.0007599746 -0.005113673
-0.0034745021 -0.0066216025 0.007086412 0.0073752743 0.011108851 0.015893336 0.019998105 0.01973185
0.017004577 -0.001012843 0.0003004592 0.005190176 0.007490481 0.00849607 0.011093448 0.01617977
-0.00811768 -0.010814013 -0.007490044 -0.012956096 -0.016168693 -0.009421137 0.0029906647 -0.003694923
-0.016983682 -0.0188557 -0.021177614 -0.019429166 -0.015406586 -0.0068440656 0.003248825 -0.0023876696
-0.001536099 -0.0010972903 -0.0025999676 -0.0032206245 -0.0040705507 0.0039621615 0.002991265 0.00661379
0.0060175154 0.0035214606 0.004881546 0.0015578411 6.479877e-05 0.0016783753 0.0058053737 0.0082416795
0.0064086183 0.005582747 -0.0019941442 0.0060026613 0.009498906 0.018323654 0.030008085 0.0395072
0.03715834 0.028912907 -0.0079579465 -0.0031270136 0.0042187995 0.010422411 0.019007523 0.022839893
0.024785565 -0.02079068 -0.024974382 -0.02244799 -0.02775006 -0.024672369 -0.013583413 0.0023240543
-0.014938437 -0.034841184 -0.041076537 -0.044500463 -0.039364923 -0.029684098 -0.014252572 0.005622284
-0.0045259013 -0.008763056 -0.011373579 -0.012755744 -0.009650436 -0.006883455 0.01145502 0.012095482
0.01396481 0.010757114 0.007280314 0.00842023 0.0056897844 -0.0022637015 -0.0019155863 0.0007293489
0.0061823856 0.0060350676 0.0031360963 -0.006350672 0.004585517 0.0058024325 0.0129130855 0.025649145
00000000: dc09 1fbb 124e bbba f1fd dcb9 95cb 8e3c
00000010: f909 583c c260 823b a9c1 41bb f129 293b
00000020: 396d 113b c3bc d1bc facb 85bd db60 81bd
00000030: 6a45 f6bc 9a7d 643a 9ef6 d3ba e67a 613c
00000040: 5ff1 8c3d 4a0b 0c3e f1e6 f73d 9287 743d
00000050: d096 723c a8ce e83b a2bc 7fbc 0d57 8ebd
00000060: c03e d1bd e131 81bd 9da9 15b9 4cce 5b3c
00000070: 6524 d2bb 8ee8 743b 5482 8a3c e072 4ebc
00000080: 4ac4 9ebd 8b9c c8bd 9bf3 75bd aea1 e93b
00000090: cd4c 1c3c a7d4 6f3c cbf9 633d 0d66 c53d
000000a0: 3cbd bb3d d66a 1e3d 42aa 51bb ac59 60ba
000000b0: 1bcf b7bb 1262 7bbc ddc3 0fbd 57e4 9cbc
000000c0: ad88 b0ba 01f7 2dbb 5527 cbbb fc2f 04bc
000000d0: a278 0c3c a031 f83b 8eb9 2139 a478 c4bb
000000e0: 6156 2e3c 913a 003c 686f c7bc 0952 93bd
000000f0: db12 95bd fe1e 19bd 539d 9cb9 247c 4cb9
00000100: 4cc8 bb3c 10cd bf3d 8db9 373e 24d4 283e
00000110: e8f2 af3d 1ea5 ed3c 245d b2ba 5465 f5bc
00000120: 66ac c8bd 415b 0dbe ad9d b6bd 20d2 21bc
00000130: 6bf0 6a3c d768 55bc 1479 9fba e6ac ce3b
00000140: 909c 10bd 2e44 dcbd 6c22 08be f259 aebd
00000150: 74c9 fa3b 9811 543c a72a be3c ffc0 973d
00000160: 534e 023e 1a46 e63d 6488 3d3d d1f3 a13a
00000170: 7658 cc3a d2ae 83bb e62f 85bc 4967 0dbd
00000180: 4a63 93bc 0d49 3039 2411 f8b9 6ed7 0bbb
00000190: 44de a13b 2040 ab3c 7f25 aa3c 516d 003c
000001a0: ac69 99bb d608 6b3b c651 8ebb 5a3a f0bc
000001b0: def6 8cbd 72c2 71bd 33a7 f7bc 1d81 d5bb
000001c0: 5547 163b ed28 3b3c 3402 4f3d 5727 cd3d
000001d0: f955 a63d 1810 c73c 2b86 8c3b 9aae c93b
000001e0: 375a c6bb d0eb 3bbd b7b9 7fbd b4cb c8bc
000001f0: 45ec 953c b56e e63c 1169 d8bb 8275 8c3b
00000200: 3c37 bc3c b6b1 693c dbfe dfbc eabf 75bd
00000210: b965 13bd 867c 9e3b 267d 20ba 0d56 10bc
00000220: 443a 5b3c b04d 663d 2b3f 683d 330f e13c
00000230: b864 3639 42b4 3d39 c667 19bb 7575 52bc
00000240: 41cf 0dbd 9241 e0bc 3157 12bc c1db 1fba
00000250: d026 13ba 62bb e439 0839 47ba 9990 a7bb
00000260: 79b4 63bb 07fa d8bb 2235 e83b 49ac f13b
00000270: e601 363c be32 823c 11d3 a33c b0a4 a13c
00000280: 2f4d 8b3c 5fc1 84ba f486 9d39 5a12 aa3b
00000290: b572 f53b 1a33 0b3c 4bc1 353c 708b 843c
000002a0: 0500 05bc 422d 31bc 0b6f f5bb ce45 54bc
000002b0: 3574 84bc 1d5b 1abc 07ff 433b 8526 72bb
000002c0: 5d21 8bbc 4577 9abc ad7c adbc ea29 9fbc
000002d0: e86b 7cbc 2f44 e0bb 3dea 543b 737a 1cbb
000002e0: ee56 c9ba f4d2 8fba 3864 2abb 1d11 53bb
000002f0: 4162 85bb 05d5 813b 1909 443b 7eb8 d83b
00000300: 942e c53b 4ec8 663b 60f5 9f3b 7930 cc3a
00000310: 93e4 8738 eefc db3a 013b be3b 1c08 073c
00000320: 63ff d13b 7aef b63b 30b0 02bb f9b1 c43b
00000330: 4da1 1b3c 7d1b 963c 84d3 f53c 4dd2 213d
00000340: 5833 183d c3da ec3c 0c62 02bc 95ee 4cbb
00000350: db3d 8a3b c3c2 2a3c aab5 9b3c ba1a bb3c
00000360: 190b cb3c 3751 aabc 1397 ccbc d9e4 b7bc
00000370: 1854 e3bc b51d cabc f78c 5ebc 294f 183b
00000380: 59c0 74bc a1b5 0ebd df3f 28bd 1e46 36bd
00000390: 1d3d 21bd 112c f3bc 9f83 69bc 233b b83b
000003a0: 034e 94bb ec92 0fbc 3f58 3abc 78fd 50bc
000003b0: dd1c 1ebc 9b8e e1bb d6ad 3b3c 212c 463c
000003c0: a9cc 643c 9b3e 303c b38f ee3b 01f5 093c
000003d0: 5f71 ba3b 9c5a 14bb 6914 fbba c731 3f3a
000003e0: 9c95 ca3b d1c1 c53b f786 4d3b 4c19 d0bb
000003f0: 1b42 963b 5522 be3b 6891 533c 281e d23c

34 f4 [64]
0.23007244 0.25738138 -1.0542947e-06 -0.64016706 -1.6570578e-08 0.16138573 0.459037 -4.301902e-07
0.3017788 -8.0053715e-06 0.343243 0.30664262 -0.24109884 -3.47442e-05 0.10718032 0.21750593
0.37091398 -0.5499938 -0.63893 0.5785326 0.30524322 0.57428867 0.48838082 0.33218446
0.19620654 0.1916099 0.15354343 0.09807283 0.4962844 0.02502701 0.16462386 0.32675287
0.25834763 0.44402748 -0.30292234 -0.020095145 -2.4506735e-07 0.316806 -4.915171e-08 0.23523429
0.23451787 0.31193152 0.43329248 0.28842753 0.25865865 0.69328916 0.42191592 0.34001315
-8.690917e-08 0.25096044 0.304463 0.62337637 0.38931307 0.3279646 -0.40447852 0.38203886
0.18151292 0.25200108 -0.42829153 0.21370429 0.57651645 0.5630627 -0.39148784 0.23681219
00000000: 1c98 6b3e 7ec7 833e 4a81 8db5 fde1 23bf
00000010: 1657 8eb2 4d42 253e e606 eb3e e4f4 e6b4
00000020: c082 9a3e cf4e 06b7 8cbd af3e 4300 9d3e
00000030: 9de2 76be 4dba 11b8 5b81 db3d e0b9 5e3e
00000040: 70e8 bd3e 65cc 0cbf eb90 23bf b61a 143f
00000050: d748 9c3e 9504 133f 0d0d fa3e 1514 aa3e
00000060: 5eea 483e 6335 443e 7d3a 1d3e 68da c83d
00000070: fd18 fe3e 7205 cd3c 2893 283e 274c a73e
00000080: 2446 843e 9257 e33e a318 9bbe 939e a4bc
00000090: cd91 83b4 6534 a23e e01a 53b3 42e1 703e
000000a0: 7425 703e 7db5 9f3e 83d8 dd3e c6ac 933e
000000b0: e86e 843e 667b 313f 5d05 d83e 3416 ae3e
000000c0: d2a2 bab3 e37d 803e 93e2 9b3e 9895 1f3f
000000d0: 0b54 c73e faea a73e cf17 cfbe 999a c33e
000000e0: 86de 393e 4906 813e 0749 dbbe 4cd5 5a3e
000000f0: 9596 133f e124 103f 1871 c8be e57e 723e

36 f4 [64, 64, 3, 3]
0.026984561 -0.044564452 -0.009498302 -0.034932077 -0.37450415 -0.09972121 0.030722195 -0.04522945
-0.0056742514 -0.0032771444 0.0066841063 0.0002615555 0.019321488 -0.07555287 -0.010873675 0.0015408648
0.0033630815 0.0335876 -1.1070226e-09 -1.8399245e-08 -1.5448183e-08 1.0184493e-08 3.9028754e-09 5.8766636e-09
5.3326388e-09 4.1276005e-09 7.2649815e-09 0.0005922753 -0.0024005764 0.0032604565 -0.00996643 -0.031985752
-0.0073655797 0.012129634 -0.0068440503 -0.0024953864 -2.3123874e-09 -2.4970115e-09 1.3515968e-09 -1.4105703e-09
-6.94563e-10 -2.3298334e-09 -8.820956e-10 2.082675e-10 1.4202446e-10 0.020685086 0.0068915524 -0.0075807134
0.023809828 0.046821877 0.023302872 -0.0061181197 0.00464271 0.00024802194 -0.004549472 -0.017458955
-0.027881231 0.0033953954 -0.014591107 -0.005640998 -0.0016056584 0.014018225 0.0016467156 -1.0679965e-08
-9.367205e-09 5.280078e-09 -1.2571923e-08 -5.7823217e-09 8.425531e-09 -4.919737e-09 7.225989e-10 1.031463e-08
0.0122616505 0.0015603534 -0.00066761725 0.03252234 0.0028405336 0.004601099 0.026199078 0.013482966
0.011007299 2.1818791e-09 -1.028635e-07 -5.1784372e-09 -3.1805236e-08 -1.0367127e-07 4.1113207e-08 8.355033e-08
2.9266948e-08 1.4654135e-07 0.006846335 0.029947028 -0.021652043 0.047178134 -0.12244698 -0.06267752
0.0063264263 0.031685997 -0.02356235 -3.2637206e-05 0.039347947 0.018812036 0.019813683 0.020615827
0.020728596 0.025860287 0.011979014 0.017645 -0.014031194 -0.0313357 -0.008602577 -0.014270422
-0.07410089 -0.024294192 0.00073142623 -0.015310094 0.0115194395 -2.4430287e-07 -3.2031824e-07 1.00017274e-08
-1.761616e-07 -3.3065385e-07 3.2236557e-07 4.3363556e-07 4.674936e-07 7.5473184e-07 0.001558065 -0.0062675746
-0.01964109 -0.012497201 0.03856758 -0.00902977 -0.02192441 0.017179606 -0.028106673 0.0119941
0.008984714 0.02205826 0.0033549846 -0.03230073 -0.0016392084 0.003823159 0.0017015993 0.007802882
0.0010789301 0.011711048 -0.012950183 -0.0066207442 -0.006831156 0.005446638 0.0019174647 0.034367096
0.026491493 0.004000127 0.0014517985 -0.0040862323 0.0037556824 -0.007058242 -0.0005795368 0.0074692494
0.0021986119 0.00897897 0.0075321114 -0.0056829522 -0.010508312 -0.003958314 -0.02976633 -4.608505e-05
0.00433793 -0.00011712582 0.0021571487 0.0062090205 0.005655263 0.031130249 0.029294973 -0.048590608
-0.005452569 -0.005363746 -0.036695547 -0.0051474124 -0.020487301 -0.039275568 0.005770349 -0.023548795
0.0025406315 -0.0042704325 -0.02125191 -0.006413481 -0.02282808 0.007893767 0.052496843 0.022485562
-0.016829167 -0.0025022388 0.017803987 -0.02122507 -0.0026708483 0.012840001 -0.004542447 -0.00051484513
-0.025483917 -0.02285322 0.010461773 -0.021849815 -0.012410294 -0.013007473 -0.029717986 0.03648212
0.0135804275 0.031986464 0.009710924 -0.025474826 0.008875479 0.019597538 0.018445544 0.006984799
0.011693032 -0.017678022 -0.035042554 0.042094447 -0.19312331 -0.020275824 -0.01159817 0.021824375
0.013743875 -0.020215673 0.020492023 -0.03233728 -0.002514664 0.01377194 -0.01321287 0.023137778
-0.01832655 -0.0020949435 -0.0005486051 0.017000753 0.029205844 -0.020356834 -0.057088178 0.016897205
0.0021469612 0.020191247 0.0023972217 0.017148532 -0.0033364971 -0.0018404999 -0.00039500208 -0.03784739
-0.003424558 0.018103506 0.019192982 0.022822348 -0.014732645 0.018182127 -0.0050710496 -0.029412685
00000000: ba0e dd3c 3789 36bd c49e 1bbc f014 0fbd
00000010: 02bf bfbe a23a ccbd 1dad fb3c 8442 39bd
00000020: 12ef b9bb 5cc5 56bb 5906 db3b 6321 8939
00000030: 1948 9e3c 77bb 9abd 8027 32bc d8f6 c93a
00000040: 2567 5c3b 2793 093d e525 98b0 5e0c 9eb2
00000050: eab2 84b2 e0f7 2e32 0e1a 8631 aeeb c931
00000060: 633a b731 c2d2 8d31 749f f931 ec42 1b3a
00000070: fd52 1dbb 62ad 553b 3d4a 23bc 7e03 03bd
00000080: f65a f1bb 5fbb 463c 0e44 e0bb a389 23bb
00000090: f3e7 1eb1 e497 2bb1 16c3 b930 08de c1b0
000000a0: 87eb 3eb0 dd1a 20b1 f677 72b0 17fe 642f
000000b0: 5528 1c2f c573 a93c 88d2 e13b a267 f8bb
000000c0: d40c c33c 4cc8 3f3d aae5 be3c 827a c8bb
000000d0: e021 983b f108 8239 bd13 95bb 1506 8fbc
000000e0: 2e67 e4bc 4885 5e3b 8a0f 6fbc 1fd8 b8bb
000000f0: f574 d2ba b2ac 653c 9bd6 d73a fc7a 37b2
00000100: 67ed 20b2 0f6c b531 e7fb 57b2 d7ad c6b1
00000110: e1bf 1032 770a a9b1 61a0 4630 3934 3132
00000120: 17e5 483c c684 cc3a 0903 2fba 2536 053d
00000130: 3f28 3a3b d1c4 963b 739f d63c a9e7 5c3c
00000140: f557 343c 06f0 1531 cfe5 dcb3 04ee b1b1
00000150: 3a9a 08b3 e2a1 deb3 7394 3033 486c b333
00000160: b366 fb32 fb58 1d34 3857 e03b 7853 f53c
00000170: a05f b1bc dc3d 413d 7bc5 fabd 125d 80bd
00000180: e94d cf3b 2dc9 013d d405 c1bc efe3 08b8
00000190: 502b 213d b31b 9a3c 4e50 a23c 86e2 a83c
000001a0: 04cf a93c f4d8 d33c a043 443c 3f8c 903c
000001b0: 18e3 65bc dd59 00bd d3f1 0cbc 7dce 69bc
000001c0: 35c2 97bd 9d04 c7bc 2fbd 3f3a 30d7 7abc
000001d0: 08bc 3c3c bb28 83b4 34f8 abb4 10d4 2b32
000001e0: ef26 3db4 b884 b1b4 9611 ad34 6bce e834
000001f0: d5fb fa34 c798 4a35 fc37 cc3a 3a60 cdbb
00000200: 5ae6 a0bc 0fc1 4cbc 0af9 1d3d 9af1 13bc
00000210: d29a b3bc 3fbc 8c3c f73f e6bc e782 443c
00000220: 9f34 133c 86b3 b43c 4ddf 5b3b c54d 04bd
00000230: b5da d6ba f78d 7a3b 3308 df3a 52af ff3b
00000240: e36a 8d3a b2df 3f3c 012d 54bc d4f2 d8bb
00000250: e4d7 dfbb b679 b23b 7053 fb3a 83c4 0c3d
00000260: b004 d93c 7f13 833b 464a be3a cde5 85bb
00000270: e521 763b d348 e7bb 0eec 17ba 9bc0 f43b
00000280: 9616 103b 881c 133c eecf f63b 0f38 babb
00000290: 0e2b 2cbc bfb4 81bb 85d8 f3bc 724b 41b8
000002a0: 3225 8e3b 72a1 f5b8 f35e 0d3b 0a75 cb3b
000002b0: c94f b93b dd04 ff3c 03fc ef3c f206 47bd
000002c0: 77ab b2bb 5dc2 afbb 124e 16bd a0ab a8bb
000002d0: fcd4 a7bc 6bdf 20bd 3215 bd3b 67e9 c0bc
000002e0: b980 263b fcee 8bbb 7c18 aebc 2e28 d2bb
000002f0: f401 bbbc dc54 013c ee06 573d a433 b83c
00000300: 52dd 89bc 9afc 23bb abd9 913c 33e0 adbc
00000310: 6609 2fbb de5e 523c cfd8 94bb acf6 06ba
00000320: a6c3 d0bc ad36 bbbc db67 2b3c 62fe b2bc
00000330: 8c54 4bbc 4c1d 55bc 2273 f3bc 476e 153d
00000340: 7180 5e3c 3d04 033d 911a 1f3c 95b0 d0bc
00000350: 756a 113c 048b a03c 1c1b 973c bee0 e43b
00000360: 2294 3f3c 80d1 90bc c888 0fbd 3a6b 2c3d
00000370: 1ec2 45be 7c19 a6bc 4006 3ebc 08c9 b23c
00000380: fd2d 613c 579b a5bc e3de a73c 1974 04bd
00000390: 10cd 24bb b4a3 613c cb7a 58bc 708b bd3c
000003a0: 9021 96bc 524b 09bb 44d0 0fba 2a45 8b3c
000003b0: 1841 ef3c 60c3 a6bc 4bd5 69bd 026c 8a3c
000003c0: 08b4 0c3b 1d68 a53c b51a 1d3b 147b 8c3c
000003d0: 22a9 5abb ee3c f1ba 4818 cfb9 dd05 1bbd
000003e0: 8d6e 60bb ce4d 943c 9a3a 9d3c eff5 ba3c
000003f0: 3161 71bc aff2 943c 0c2b a6bb dff2 f0bc

37 f4 [64]
0.36862558 0.32540664 0.1629395 0.3600761 0.6514673 0.45497298 0.34359002 0.145504
0.54460394 0.31790447 0.10874702 0.82108486 0.17516395 0.35525697 0.3531294 0.37429807
0.6563031 0.025943205 0.81989574 0.30463117 0.47849286 0.6772113 0.7939789 0.4054647
0.11222938 0.13529554 -0.10019483 0.70128363 -0.00061775744 -0.24341804 -0.07610357 0.8877944
0.5409579 1.0851187 0.8745005 0.5472988 0.49821532 0.12626441 1.0744056 0.85285425
0.19560975 0.59537643 -0.1725164 -0.56673664 0.34116015 0.5152212 1.1022106 0.86559445
0.8597342 0.9998487 0.677685 1.0232342 0.38516027 0.7689123 0.981967 -0.6340599
0.61560035 0.17940405 0.54771376 0.10452443 0.36369205 0.73956215 -0.8196391 0.51254725
00000000: 7ebc bc3e b39b a63e 9dd9 263e e55b b83e
00000010: 90c6 263f 38f2 e83e 08eb af3e 00ff 143e
00000020: 2a6b 0b3f 60c4 a23e c2b6 de3d 9e32 523f
00000030: 2e5e 333e 3ee4 b53e 60cd b43e ffa3 bf3e
00000040: 7b03 283f d886 d43c b0e4 513f 9ef8 9b3e
00000050: 04fd f43e b85d 2d3f 3442 4b3f 1299 cf3e
00000060: 84d8 e53d ea8a 0a3e f232 cdbd 5387 333f
00000070: 00f1 21ba 9442 79be 30dc 9bbd 7e46 633f
00000080: 387c 0a3f 2be5 8a3f 44df 5f3f c61b 0c3f
00000090: 1416 ff3e 754b 013e 1f86 893f a854 5a3f
000000a0: ec4d 483e 976a 183f 24a8 30be a715 11bf
000000b0: 8bac ae3e 89e5 033f 3d15 8d3f 9997 5d3f
000000c0: 8a17 5c3f 16f6 7f3f c47c 2d3f 57f9 823f
000000d0: ba33 c53e 70d7 443f 3062 7b3f c051 22bf
000000e0: fc97 1d3f b2b5 373e f836 0c3f e810 d63d
000000f0: d835 ba3e f253 3d3f ded3 51bf 4c36 033f

39 f4 [64, 64, 3, 3]
0.01926888 -0.07766111 -0.0035432691 -0.064032 -0.24522248 -0.07630731 -0.042646118 -0.14165284
-0.040581986 -0.012588529 0.015880737 -0.0015650389 -0.0024494247 0.033428848 -0.00854788 -0.044262152
0.004822772 0.0021595724 -0.003334612 0.014583042 0.009778407 0.009691313 -0.0057532466 0.008860649
0.009991107 0.008245299 0.0040952684 0.023993686 -0.050180696 -0.038000073 0.010242028 -0.120642886
-0.056057516 -0.003156192 -0.0757681 -0.037072893 0.011392616 -0.0024619254 -0.003322242 0.008752358
0.0126185585 -0.0053138034 0.003677583 0.017361086 0.0030682066 0.04856483 0.04807054 0.058078516
0.059889905 0.045256354 0.06903895 0.059071176 0.050515782 0.060623553 0.012928609 0.015434665
0.011567715 0.023061413 -0.027402148 -0.009051963 -0.007877242 -0.0072791865 -0.0060206424 -0.0075493474
0.012111354 -0.01436725 -0.019835556 -0.010129696 -0.022168789 0.015930463 0.012467283 -0.0013752287
0.029111665 0.03561771 0.053092465 0.01730519 0.040104512 0.03777541 0.053225733 0.045075227
0.027665352 0.033624783 0.03813518 0.02835669 0.019756652 0.021324104 0.017479306 0.022156194
0.039412495 0.034427498 0.0074836765 0.015655365 0.0029453028 -0.0058393027 0.04153519 0.023463445
0.0021450128 -0.004203688 0.011445192 0.02816507 0.030066954 0.033980217 -0.011100064 -0.0012818177
0.019799603 0.018988289 0.032304488 0.034035735 -0.041258134 -0.01951612 -0.019578015 -0.010181627
0.019627018 0.019532943 -0.019942872 -0.07551527 -0.020388773 -0.022674501 -0.013054871 0.0020432842
-0.01711273 -0.022521583 0.020174133 0.0019624918 0.0035338518 0.010861644 0.011265598 0.016046258
0.028547317 0.021115374 -0.001722999 0.016062852 0.018294938 0.0009804585 0.017644422 -0.006190606
0.0033173664 0.0057032825 0.017647708 0.010526473 -0.0015819212 0.0017364266 0.00070120726 0.01677631
-0.017561348 -0.023398882 -0.009364089 -0.0009171166 0.019746758 0.007317603 -0.017070588 0.0131316045
-0.006388345 0.017537067 -0.006697982 0.0058245584 0.008659574 -0.010569392 0.0032124294 0.039227396
0.018839363 0.02718195 -0.004702812 0.004932378 -0.00077479094 0.007928554 0.025129631 0.02319448
0.0002590418 -0.0055300994 0.0032093185 0.018744826 0.034704555 0.03876915 0.050636727 0.028667912
0.015215575 0.018009543 0.0020517115 0.020364441 -0.031791646 -0.017285401 -0.022284325 -0.02903961
-0.012629155 -0.0073388536 -0.036973465 -0.026110707 -0.004181431 0.019517228 0.0073886965 0.005461089
0.01604528 -0.010844223 -0.013429481 0.020854121 -0.010525235 0.004682577 0.027703097 0.024168793
0.042426 0.003839349 0.0032697627 0.030706394 0.03109299 0.018452449 0.028352642 0.00074244704
-0.006119307 -0.006568678 -0.006508519 0.01192655 -0.0032266327 0.010752217 0.00047699912 0.0010132329
-0.00026893613 -0.00035349422 -0.0029208506 0.0021225046 0.0104423 0.01239484 0.012060523 -0.005385338
0.0027001102 0.023891853 0.0036127435 0.00666244 0.0016211962 -0.0073288116 -0.016023219 0.011536188
1.9103687e-05 -0.00017864356 -0.015808098 -0.01276624 -0.021448221 0.013409323 0.018155944 0.023482038
-0.022798643 0.0030753373 0.011175155 2.4749363e-05 0.0077344347 0.02423293 -0.019752746 -0.020665813
-0.006100902 -0.020855706 -0.009346958 -0.0012536318 -0.02563026 0.021928467 0.0008430286 -0.013141068
00000000: c5d9 9d3c ca0c 9fbd 3136 68bb 3623 83bd
00000010: 9a1b 7bbe 0247 9cbd b2ad 2ebd 710d 11be
00000020: 4c39 26bd 1e40 4ebc 5218 823c fe21 cdba
00000030: 8786 20bb b0ec 083d 680c 0cbc 3b4c 35bd
00000040: 5808 9e3b 9d87 0d3b 8189 5abb b6ed 6e3c
00000050: 9d35 203c 50c8 1e3c bb85 bcbb 412c 113c
00000060: bdb1 233c 4a17 073c 9a31 863b 688e c43c
00000070: 468a 4dbd f7a5 1bbd 2ece 273c 9e13 f7bd
00000080: 919c 65bd 1dd8 4ebb 4e2c 9bbd bfd9 17bd
00000090: 18a8 3a3c 4158 21bb f9b9 59bb 0d66 0f3c
000000a0: 12be 4e3c 6a1f aebb 9b03 713b d638 8e3c
000000b0: f713 493b eaeb 463d 9de5 443d bde3 6d3d
000000c0: 1e4f 753d ba5e 393d 4b64 8d3d 9ef4 713d
000000d0: a3e9 4e3d 6750 783d 84d2 533c ade1 7c3c
000000e0: 8386 3d3c 4aeb bc3c 787a e0bc af4e 14bc
000000f0: 8c0f 01bc 3e86 eebb cf48 c5bb 8460 f7bb
00000100: b36e 463c 9d64 6bbc 2d7e a2bc 06f7 25bc
00000110: 529b b5bc 9a80 823c 9343 4c3c 0541 b4ba
00000120: 967b ee3c e0e3 113d 7c77 593d 9dc3 8d3c
00000130: a144 243d 63ba 1a3d 3a03 5a3d cda0 383d
00000140: 73a2 e23c 24ba 093d a233 1c3d 4a4c e83c
00000150: b4d8 a13c e3af ae3c c330 8f3c e880 b53c
00000160: ff6e 213d d903 0d3d a139 f53b ae3f 803c
00000170: fb05 413b 9f57 bfbb ce20 2a3d 6936 c03c
00000180: 5893 0c3b 17bf 89bb 9d84 3b3c 6fba e63c
00000190: f94e f63c d72e 0b3d 0bdd 35bc aa02 a8ba
000001a0: c732 a23c 548d 9b3c b651 043d 0e69 0b3d
000001b0: 4afe 28bd 45e0 9fbc 1362 a0bc d7d0 26bc
000001c0: d7c8 a03c 8d03 a03c 3c5f a3bc c0a7 9abd
000001d0: 5b06 a7bc e0bf b9bc 19e4 55bc 9fe8 053b
000001e0: ff2f 8cbc 2f7f b8bc 3944 a53c 269d 003b
000001f0: 3298 673b 09f5 313c 5893 383c 7173 833c
00000200: 10dc e93c 26fa ac3c 41d6 e1ba 3e96 833c
00000210: 44df 953c ba82 803a 098b 903c 91da cabb
00000220: 2c68 593b 9ae2 ba3b ed91 903c 3a77 2c3c
00000230: 7858 cfba cf98 e33a 39d1 373a 796e 893c
00000240: d1dc 8fbc 03af bfbc d66b 19bc a76a 70ba
00000250: f4c3 a13c 81c8 ef3b 9ed7 8bbc f125 573c
00000260: 5255 d1bb e5a9 8f3c bf7a dbbb f0db be3b
00000270: e3e0 0d3c 3e2b 2dbc 9f87 523b e8ac 203d
00000280: 0255 9a3c aeac de3c 0c1a 9abb c99f a13b
00000290: 571b 4bba c4e6 013c a8dc cd3c 5a02 be3c
000002a0: 00d0 8739 d635 b5bb 6e53 523b c08e 993c
000002b0: 5d26 0e3d 66cc 1e3d 7568 4f3d f8d8 ea3c
000002c0: bf4a 793c c088 933c 0276 063b 54d3 a63c
000002d0: f537 02bd 1d9a 8dbc 9e8d b6bc 7ae4 edbc
000002e0: 84ea 4ebc c47a f0bb 7d71 17bd 1fe6 d5bc
000002f0: 6304 89bb 98e2 9f3c e11c f23b eff2 b23b
00000300: 6471 833c f8ab 31bc 5307 5cbc 43d6 aa3c
00000310: 0972 2cbc 4e70 993b 9bf1 e23c a2fd c53c
00000320: e3c6 2d3d 969d 7b3b 8449 563b fa8b fb3c
00000330: bab6 fe3c 9729 973c cd43 e83c c7a0 423a
00000340: 7884 c8bb 113e d7bb 6a45 d5bb 9467 433c
00000350: ea75 53bb 112a 303c bd15 fa39 74ce 843a
00000360: ffff 8cb9 3155 b9b9 be6b 3fbb b819 0b3b
00000370: 2e16 2b3c ba13 4b3c 8099 453c 7d77 b0bb
00000380: 55f4 303b d9b8 c33c c7c3 6c3b 9950 da3b
00000390: 517e d43a 8726 f0bb 2043 83bc 4802 3d3c
000003a0: db40 a037 4452 3bb9 fc7f 81bc 7e29 51bc
000003b0: 2eb4 afbc c7b2 5b3c c6bb 943c 675d c03c
000003c0: 38c4 babc 998b 493b ff17 373c da9c cf37
000003d0: 2471 fd3b 2384 c63c 83d0 a1bc 5a4b a9bc
000003e0: 13ea c7bb 96d9 aabc fc23 19bc e750 a4ba
000003f0: 8df6 d1bc 54a3 b33c b1fe 5c3a a24d 57bc

40 f4 [64]
0.103008054 0.0030903718 -1.2511992 -0.3519137 0.082185626 -0.14083688 0.0266508 0.020458238
0.94982207 -0.06210627 0.072440244 0.4812051 0.08281898 -0.1622788 0.0013067052 0.13752753
-0.044610485 -0.17567849 -0.25950795 -0.3961426 -0.5492737 0.12522909 -0.32109514 0.13534775
-0.037793864 0.5929341 -0.03495747 -0.10619372 0.28673878 0.22980997 0.480153 0.2717196
-0.0048583597 0.33499312 0.10948839 -0.053439207 -0.831642 0.51168454 0.3979779 0.49074072
0.37778795 0.12816092 0.029898204 0.09373534 -0.19215025 -0.035887122 1.7853345 -0.05240508
0.010683357 0.21048759 0.7275256 -0.118608385 0.07336375 0.22528964 -0.4058324 0.2439326
0.16569525 -0.11167834 0.3559549 -0.27849677 -0.05302265 0.18836482 -0.27065992 0.2809891
00000000: e3f5 d23d d687 4a3b 4c27 a0bf 082e b4be
00000010: f050 a83d 8b37 10be c752 da3c 0998 a73c
00000020: 8a27 733f 2563 7ebd 8d5b 943d 8460 f63e
00000030: ff9c a93d 6a2c 26be c045 ab3a 04d4 0c3e
00000040: 7cb9 36bd 10e5 33be 3ade 84be 34d3 cabe
00000050: 349d 0cbf 0e3c 003e 9566 a4be 9a98 0a3e
00000060: bdcd 1abd 87ca 173f 902f 0fbd 187c d9bd
00000070: 6dcf 923e 4e53 6b3e 9dd6 f53e d51e 8b3e
00000080: e032 9fbb 3884 ab3e 733b e03d 12e3 5abd
00000090: 7de6 54bf c2fd 023f c2c3 cb3e 5e42 fb3e
000000a0: 6c6d c13e 9e3c 033e 14ed f43c 50f8 bf3d
000000b0: 09c3 44be 60fe 12bd d785 e43f b6a6 56bd
000000c0: 3f09 2f3c 0f8a 573e 1e3f 3a3f f4e8 f2bd
000000d0: bc3f 963d 54b2 663e 44c9 cfbe 78c9 793e
000000e0: 04ac 293e 9db7 e4bd b83f b63e 2197 8ebe
000000f0: 472e 59bd b5e2 403e f093 8abe cedd 8f3e
