docs/onnx_files/resnet18_conv5.onnx (onnx, 629638 bytes, 9 tensors)

layer1.1.conv2.weight f4 [64, 64, 3, 3]
000000 51 bb b0 bc ac b5 95 bb a4 09 95 3b c6 22 06 bc
       -0.021573694 -0.004568776 0.0045482684 -0.008187002
000010 27 f7 2a 3d eb 7e bc 3c 16 48 12 bc 71 ea 6a 3d
       0.04173961 0.023009738 -0.008928319 0.057352487
000020 da 43 f4 3c b4 22 70 3d 7a 92 2f 3d 72 f5 37 3d
       0.02981751 0.058626845 0.0428643 0.04491181
000030 08 87 b6 3c d2 7a 54 bc 1b 5c f9 3b 32 d9 39 3d
       0.022281185 -0.012968736 0.007609857 0.04537315
000040 5f 97 fb 3c 80 6b 1a 3d a6 39 7d bc 22 7b 1e bd
       0.030711828 0.037700176 -0.015455639 -0.038691647
000050 39 75 3c bd 64 6d bd bc 2e c7 e7 3c 69 99 9c 3b
       -0.04601023 -0.02312345 0.028293218 0.00477903
000060 81 87 a6 bc 04 60 61 3c c6 08 d4 3c 48 04 c6 3a
       -0.020328285 0.013755802 0.02588309 0.0015107477
000070 3c 22 aa bd 01 61 3c bd 33 77 42 bd 4d 47 1a be
       -0.08307311 -0.045990948 -0.04747696 -0.15066262
000080 91 74 d9 bd 07 3d 48 3a c5 8a 98 bd e0 08 67 bd
       -0.106179364 0.00076384883 -0.07448343 -0.05640495
000090 a7 2c ba bb 58 3e b1 bc 52 76 13 3c 24 d1 93 bb
       -0.0056815925 -0.021636173 0.009000378 -0.0045110155
0000a0 ff 0d 6d 3c a8 f6 93 3c 16 e1 c2 bc 13 10 d7 bc
       0.014468669 0.01806195 -0.02378897 -0.026252782
0000b0 29 93 17 bd 08 9a f0 ba c3 c8 99 3b 89 b1 16 3c
       -0.037005577 -0.0018356452 0.004693122 0.009197601
0000c0 0e ea 1d 3c c8 ed cd b9 15 50 8a bc 0a 95 c8 3c
       0.0096383225 -0.00039277808 -0.01688389 0.02448513
0000d0 cd 37 64 3c 0f d0 bd bc 25 91 b5 3b f4 f8 6f bc
       0.01392932 -0.0231705 0.005540984 -0.014646757
0000e0 0c 8f 67 3a 0a 1e f9 bc 77 4d 4e bc fa c1 09 3d
       0.00088332663 -0.030409832 -0.012591711 0.033632256
0000f0 2d b6 94 3b d4 62 7c 3b 6b 4e a2 3c 4b ab 3e 3b
       0.0045383186 0.0038511055 0.019812783 0.0029093798
000100 a2 7a ac 39 eb 46 36 bc 7f d8 8b 3b 50 6a 27 3c
       0.00032897765 -0.011125307 0.0042677517 0.010218218
000110 c2 36 fe 3b cb 3c 63 bc bf 90 f0 bb 16 ec c2 3b
       0.0077579925 -0.013869475 -0.007341474 0.005948554
000120 d4 ab 13 bb 69 98 dd ba 38 15 0f 3c 5b 91 66 3b
       -0.0022532837 -0.0016906384 0.008733086 0.0035181853
000130 38 5c 81 ba c9 d8 a5 3b 33 f2 1c bd 4d 23 2f bd
       -0.0009869402 0.005061243 -0.038316917 -0.042758275
000140 f4 9d 17 bd 2c 5a f3 bc f3 3a 19 bc 64 7b a3 bc
       -0.03701587 -0.029706083 -0.0093524335 -0.019956298
000150 39 d8 50 3b 3e cb 06 ba b9 a3 9e bc 7d 04 5b bc
       0.003186716 -0.000514198 -0.019365178 -0.013367769
000160 96 ea 12 bd 65 c8 cd bc 96 bd 04 3d 3b 6f 85 3d
       -0.03586825 -0.02511997 0.032407366 0.06515356
000170 fb 81 32 3d 47 c4 dd 3d 23 bf 30 3d 87 cd a1 bd
       0.04358099 0.108284526 0.043151032 -0.07900529
000180 a4 78 90 3d a6 78 ee ba 4e bb d6 bd aa ad 0e 3c
       0.070542604 -0.0018193915 -0.10484944 0.008708397
000190 34 a4 80 bc df 89 97 bc 95 56 12 bd b2 f1 27 bd
       -0.015703298 -0.01849836 -0.035727102 -0.041001983
0001a0 e2 88 27 bd 32 58 40 3c c1 ef d9 bc 87 b1 37 3b
       -0.040902026 0.011739777 -0.026603581 0.0028029399
0001b0 c5 6d 71 3b 95 11 ed 3b 94 c1 a5 3b 74 a8 76 3b
       0.003683911 0.007234762 0.0050584767 0.0037637027
0001c0 1b c9 32 3b 22 fb 80 3c eb 45 fa 3c 66 c8 e9 3b
       0.0027280513 0.01574475 0.030550918 0.007134485
0001d0 39 8a 73 3a 3b 6b 35 bd ad d6 0c bd bb 19 79 3b
       0.0009290311 -0.044291716 -0.03438442 0.0038009721
0001e0 6a 67 92 bd 35 cc 0b be 64 08 1d ba 77 24 b5 bd
       -0.07148631 -0.13652118 -0.0005990325 -0.08844846
0001f0 e4 92 ea bd 85 24 0e bb d8 3b 8c 3b 9d 9d 19 bd
       -0.114537984 -0.0021689248 0.004279595 -0.037503827
000200 8b 3c e6 bb cb 59 3b bb 1b a6 b6 bb 58 75 20 3c
       -0.0070262603 -0.0028587456 -0.0055740005 0.009793602
000210 28 d5 81 bb 81 c3 f2 bb 3d fb 20 3d 01 bc 84 bd
       -0.003962178 -0.00740856 0.0393021 -0.064811714
000220 71 39 8a bd ef 00 27 bd b6 12 77 bd 40 ea 88 bd
       -0.06749237 -0.040772375 -0.06032058 -0.06685305
000230 78 b0 4e bd a7 bb 46 bd 70 1b 43 bd 1e 9d 81 bd
       -0.050461262 -0.048518803 -0.04763359 -0.06328796
000240 30 5f 8d 3b 2d ee a5 bb 12 b7 ff bc b1 62 6f 3b
       0.0043143257 -0.005063793 -0.031215224 0.003652733
000250 28 c9 30 ba f4 51 7f 3c 79 9c 39 bc c6 fb 99 bc
       -0.0006743842 0.015583504 -0.01132881 -0.018796813
000260 6c 92 a0 bb 02 9e 47 3c 59 e7 19 3c 15 54 1b 3b
       -0.0049002673 0.012183668 0.0093935365 0.002370124
000270 d9 af ff ba 1e 34 2d bc 8b e0 38 bc c3 54 3f bb
       -0.0019507363 -0.010571508 -0.011284004 -0.002919481
000280 6f 4e 6a bc ce f4 7a bc d6 b7 87 bd 45 62 be bd
       -0.014300927 -0.015317155 -0.06626861 -0.09296087
000290 8e 80 3f bd 4f eb 14 be 57 a2 4d be 52 97 f1 bd
       -0.04675346 -0.14542888 -0.20081459 -0.1179644
0002a0 93 65 06 be e1 6c 25 be 04 31 d0 bd 18 f1 fc 3c
       -0.13124685 -0.16154815 -0.10165599 0.030876681
0002b0 80 a4 27 3c 9d 58 ba 3c 46 87 91 3c a7 f1 63 3b
       0.010232091 0.022747332 0.017764699 0.0034781487
0002c0 d6 38 88 3c e8 b0 68 3c 76 53 f1 3b 4c 8c 6b 3c
       0.016628664 0.014202334 0.0073646856 0.014376711
0002d0 2c 29 01 3c 9b 54 9f ba a3 2b e0 bb 45 d1 cc 3c
       0.007883351 -0.0012155952 -0.0068411394 0.025002131
0002e0 2d 81 08 3c 10 2c da bb 4e c1 46 bc a4 4b 87 bc
       0.008331579 -0.0066580847 -0.012131048 -0.01651556
0002f0 56 5b be bc ba 45 c9 bb 16 e7 c1 bb e0 e5 d4 bb
       -0.023236912 -0.0061423453 -0.00591744 -0.00649713
000300 64 d6 5f 3d 19 8f 10 3b 4c c5 03 3d 19 2e 22 bc
       0.05464782 0.002205795 0.03217058 -0.009898686
000310 8d 9a df bc a9 a4 50 3d 76 1e a3 3c 52 99 99 3c
       -0.027295375 0.050938282 0.019911986 0.018749867
000320 2d 96 d8 3c 53 0d 5c 3c c6 1b c2 bb e4 e6 65 3c
       0.026438797 0.013430911 -0.005923721 0.014032099
000330 06 33 37 3c c8 86 b5 3c 3c ea 8b 3c 59 64 04 3c
       0.0111815985 0.022158995 0.017079465 0.008080565
000340 89 23 6a bc 69 0a c0 3c 70 10 24 bc 77 d8 50 bd
       -0.014290699 0.023442464 -0.010013685 -0.050987687
000350 08 05 aa 3c eb 6a 80 3c 33 b6 55 3c 47 02 0f 3d
       0.020754352 0.015675982 0.013043928 0.03491428
000360 8c 49 0c bc 6a 8d e8 3b 8f c4 df 3a a2 db 03 3c
       -0.008562457 0.007096936 0.0017072129 0.00804797
000370 be 31 a9 3b 03 23 2e 3b ff ed 3a bc 77 cc 95 bc
       0.0051634004 0.0026571162 -0.011409282 -0.018285973
000380 76 4e be bc fe 96 ae 3c 9a b0 8b bc ea 0b 0f bd
       -0.023230772 0.021312233 -0.017051984 -0.03492347
000390 93 ce a7 3b ef 90 ef ba a2 62 ec 3b 99 07 07 ba
       0.005121061 -0.0018277447 0.0072139064 -0.00051509734
0003a0 f6 92 a3 3b 03 ae 94 bc 09 41 39 bc d6 68 10 bc
       0.0049918843 -0.018149382 -0.0113070095 -0.008814057
0003b0 b1 93 93 bc 47 cc 96 3c ad b8 98 bb 2d ad a1 bc
       -0.01801476 0.018407954 -0.004660687 -0.019735897
0003c0 80 b1 9f 3b 61 56 21 bc d6 0e df ba 12 e6 eb 39
       0.0048734546 -0.0098472545 -0.0017017971 0.0004499411
0003d0 10 ed e4 3c 1a f5 8a 3d 39 08 a8 bc 60 ad 04 3d
       0.027945071 0.06785031 -0.020511733 0.032391906
0003e0 0c ea 16 3d 3d e3 1d bd db 19 21 bc de fe ee 3b
       0.0368443 -0.03854679 -0.009832825 0.007293566
0003f0 02 86 ec bb c1 49 7c bc 5a 13 ae bc c5 98 8b bc
       -0.0072181234 -0.015398444 -0.021249462 -0.01704062

42 f4 [64, 3, 7, 7]
000000 dc 09 1f bb 12 4e bb ba f1 fd dc b9 95 cb 8e 3c
       -0.0024267351 -0.0014290235 -0.0004215087 0.01743106
000010 f9 09 58 3c c2 60 82 3b a9 c1 41 bb f1 29 29 3b
       0.013185971 0.0039788196 -0.0029564893 0.0025812353
000020 39 6d 11 3b c3 bc d1 bc fa cb 85 bd db 60 81 bd
       0.0022190346 -0.025602704 -0.06533046 -0.06317302
000030 6a 45 f6 bc 9a 7d 64 3a 9e f6 d3 ba e6 7a 61 3c
       -0.030062396 0.0008716226 -0.001617152 0.013762211
000040 5f f1 8c 3d 4a 0b 0c 3e f1 e6 f7 3d 92 87 74 3d
       0.068819754 0.13676181 0.121045955 0.059699602
000050 d0 96 72 3c a8 ce e8 3b a2 bc 7f bc 0d 57 8e bd
       0.014806464 0.0071047135 -0.015608938 -0.06950197
000060 c0 3e d1 bd e1 31 81 bd 9d a9 15 b9 4c ce 5b 3c
       -0.10217047 -0.06308342 -0.00014272933 0.013415884
000070 65 24 d2 bb 8e e8 74 3b 54 82 8a 3c e0 72 4e bc
       -0.00641303 0.0037370059 0.016907848 -0.0126006305
000080 4a c4 9e bd 8b 9c c8 bd 9b f3 75 bd ae a1 e9 3b
       -0.07752283 -0.09795483 -0.060046773 0.0071298694
000090 cd 4c 1c 3c a7 d4 6f 3c cb f9 63 3d 0d 66 c5 3d
       0.009539795 0.014638103 0.055658143 0.09638605
0000a0 3c bd bb 3d d6 6a 1e 3d 42 aa 51 bb ac 59 60 ba
       0.09166953 0.038676105 -0.003199235 -0.0008558284
0000b0 1b cf b7 bb 12 62 7b bc dd c3 0f bd 57 e4 9c bc
       -0.0056094057 -0.015343206 -0.0350989 -0.01915185
0000c0 ad 88 b0 ba 01 f7 2d bb 55 27 cb bb fc 2f 04 bc
       -0.0013468467 -0.002654493 -0.006199757 -0.008068081
0000d0 a2 78 0c 3c a0 31 f8 3b 8e b9 21 39 a4 78 c4 bb
       0.008573683 0.007574275 0.00015423281 -0.005995827
0000e0 61 56 2e 3c 91 3a 00 3c 68 6f c7 bc 09 52 93 bd
       0.0106407115 0.007826463 -0.024345115 -0.07193381
0000f0 db 12 95 bd fe 1e 19 bd 53 9d 9c b9 24 7c 4c b9
       -0.07278987 -0.037383072 -0.00029871854 -0.00019501202
000100 4c c8 bb 3c 10 cd bf 3d 8d b9 37 3e 24 d4 28 3e
       0.022922657 0.093652844 0.17941876 0.16487175
000110 e8 f2 af 3d 1e a5 ed 3c 24 5d b2 ba 54 65 f5 bc
       0.085912526 0.029009398 -0.001360808 -0.029955544
000120 66 ac c8 bd 41 5b 0d be ad 9d b6 bd 20 d2 21 bc
       -0.097985074 -0.13804342 -0.08916793 -0.009876758
000130 6b f0 6a 3c d7 68 55 bc 14 79 9f ba e6 ac ce 3b
       0.014339547 -0.013025484 -0.0012166821 0.006307232
000140 90 9c 10 bd 2e 44 dc bd 6c 22 08 be f2 59 ae bd
       -0.03530556 -0.10755192 -0.13294381 -0.085132495
000150 74 c9 fa 3b 98 11 54 3c a7 2a be 3c ff c0 97 3d
       0.0076534096 0.012943648 0.023213698 0.07409858
000160 53 4e 02 3e 1a 46 e6 3d 64 88 3d 3d d1 f3 a1 3a
       0.12725191 0.112438396 0.04627265 0.0012355988
000170 76 58 cc 3a d2 ae 83 bb e6 2f 85 bc 49 67 0d bd
       0.0015590328 -0.004018643 -0.016258191 -0.03452233
000180 4a 63 93 bc 0d 49 30 39 24 11 f8 b9 6e d7 0b bb
       -0.01799168 0.00016811882 -0.00047315017 -0.0021338123
000190 44 de a1 3b 20 40 ab 3c 7f 25 aa 3c 51 6d 00 3c
       0.004939826 0.0209046 0.020769833 0.007838563
0001a0 ac 69 99 bb d6 08 6b 3b c6 51 8e bb 5a 3a f0 bc
       -0.0046817865 0.003586342 -0.0043432442 -0.0293247
0001b0 de f6 8c bd 72 c2 71 bd 33 a7 f7 bc 1d 81 d5 bb
       -0.06883024 -0.059023328 -0.030231094 -0.0065156356
0001c0 55 47 16 3b ed 28 3b 3c 34 02 4f 3d 57 27 cd 3d
       0.00229307 0.011423332 0.05053921 0.10017269
0001d0 f9 55 a6 3d 18 10 c7 3c 2b 86 8c 3b 9a ae c9 3b
       0.08121867 0.024299666 0.004288455 0.0061548473
0001e0 37 5a c6 bb d0 eb 3b bd b7 b9 7f bd b4 cb c8 bc
       -0.006053235 -0.045879185 -0.06243297 -0.024511196
0001f0 45 ec 95 3c b5 6e e6 3c 11 69 d8 bb 82 75 8c 3b
       0.018301139 0.028128961 -0.0066043218 0.004286469
000200 3c 37 bc 3c b6 b1 69 3c db fe df bc ea bf 75 bd
       0.022975557 0.014263561 -0.027343204 -0.059997477
000210 b9 65 13 bd 86 7c 9e 3b 26 7d 20 ba 0d 56 10 bc
       -0.035985682 0.0048366217 -0.0006122164 -0.008809579
000220 44 3a 5b 3c b0 4d 66 3d 2b 3f 68 3d 33 0f e1 3c
       0.013380591 0.056226432 0.056700867 0.027473068
000230 b8 64 36 39 42 b4 3d 39 c6 67 19 bb 75 75 52 bc
       0.00017394393 0.00018091596 -0.00234078 -0.012845387
000240 41 cf 0d bd 92 41 e0 bc 31 57 12 bc c1 db 1f ba
       -0.03462148 -0.027375016 -0.008931921 -0.00060981145
000250 d0 26 13 ba 62 bb e4 39 08 39 47 ba 99 90 a7 bb
       -0.00056133885 0.0004362716 -0.0007599746 -0.005113673
000260 79 b4 63 bb 07 fa d8 bb 22 35 e8 3b 49 ac f1 3b
       -0.0034745021 -0.0066216025 0.007086412 0.0073752743
000270 e6 01 36 3c be 32 82 3c 11 d3 a3 3c b0 a4 a1 3c
       0.011108851 0.015893336 0.019998105 0.01973185
000280 2f 4d 8b 3c 5f c1 84 ba f4 86 9d 39 5a 12 aa 3b
       0.017004577 -0.001012843 0.0003004592 0.005190176
000290 b5 72 f5 3b 1a 33 0b 3c 4b c1 35 3c 70 8b 84 3c
       0.007490481 0.00849607 0.011093448 0.01617977
0002a0 05 00 05 bc 42 2d 31 bc 0b 6f f5 bb ce 45 54 bc
       -0.00811768 -0.010814013 -0.007490044 -0.012956096
0002b0 35 74 84 bc 1d 5b 1a bc 07 ff 43 3b 85 26 72 bb
       -0.016168693 -0.009421137 0.0029906647 -0.003694923
0002c0 5d 21 8b bc 45 77 9a bc ad 7c ad bc ea 29 9f bc
       -0.016983682 -0.0188557 -0.021177614 -0.019429166
0002d0 e8 6b 7c bc 2f 44 e0 bb 3d ea 54 3b 73 7a 1c bb
       -0.015406586 -0.0068440656 0.003248825 -0.0023876696
0002e0 ee 56 c9 ba f4 d2 8f ba 38 64 2a bb 1d 11 53 bb
       -0.001536099 -0.0010972903 -0.0025999676 -0.0032206245
0002f0 41 62 85 bb 05 d5 81 3b 19 09 44 3b 7e b8 d8 3b
       -0.0040705507 0.0039621615 0.002991265 0.00661379
000300 94 2e c5 3b 4e c8 66 3b 60 f5 9f 3b 79 30 cc 3a
       0.0060175154 0.0035214606 0.004881546 0.0015578411
000310 93 e4 87 38 ee fc db 3a 01 3b be 3b 1c 08 07 3c
       6.479877e-05 0.0016783753 0.0058053737 0.0082416795
000320 63 ff d1 3b 7a ef b6 3b 30 b0 02 bb f9 b1 c4 3b
       0.0064086183 0.005582747 -0.0019941442 0.0060026613
000330 4d a1 1b 3c 7d 1b 96 3c 84 d3 f5 3c 4d d2 21 3d
       0.009498906 0.018323654 0.030008085 0.0395072
000340 58 33 18 3d c3 da ec 3c 0c 62 02 bc 95 ee 4c bb
       0.03715834 0.028912907 -0.0079579465 -0.0031270136
000350 db 3d 8a 3b c3 c2 2a 3c aa b5 9b 3c ba 1a bb 3c
       0.0042187995 0.010422411 0.019007523 0.022839893
000360 19 0b cb 3c 37 51 aa bc 13 97 cc bc d9 e4 b7 bc
       0.024785565 -0.02079068 -0.024974382 -0.02244799
000370 18 54 e3 bc b5 1d ca bc f7 8c 5e bc 29 4f 18 3b
       -0.02775006 -0.024672369 -0.013583413 0.0023240543
000380 59 c0 74 bc a1 b5 0e bd df 3f 28 bd 1e 46 36 bd
       -0.014938437 -0.034841184 -0.041076537 -0.044500463
000390 1d 3d 21 bd 11 2c f3 bc 9f 83 69 bc 23 3b b8 3b
       -0.039364923 -0.029684098 -0.014252572 0.005622284
0003a0 03 4e 94 bb ec 92 0f bc 3f 58 3a bc 78 fd 50 bc
       -0.0045259013 -0.008763056 -0.011373579 -0.012755744
0003b0 dd 1c 1e bc 9b 8e e1 bb d6 ad 3b 3c 21 2c 46 3c
       -0.009650436 -0.006883455 0.01145502 0.012095482
0003c0 a9 cc 64 3c 9b 3e 30 3c b3 8f ee 3b 01 f5 09 3c
       0.01396481 0.010757114 0.007280314 0.00842023
0003d0 5f 71 ba 3b 9c 5a 14 bb 69 14 fb ba c7 31 3f 3a
       0.0056897844 -0.0022637015 -0.0019155863 0.0007293489
0003e0 9c 95 ca 3b d1 c1 c5 3b f7 86 4d 3b 4c 19 d0 bb
       0.0061823856 0.0060350676 0.0031360963 -0.006350672
0003f0 1b 42 96 3b 55 22 be 3b 68 91 53 3c 28 1e d2 3c
       0.004585517 0.0058024325 0.0129130855 0.025649145

43 f4 [64]
000000 1c 98 6b 3e 7e c7 83 3e 4a 81 8d b5 fd e1 23 bf
       0.23007244 0.25738138 -1.0542947e-06 -0.64016706
000010 16 57 8e b2 4d 42 25 3e e6 06 eb 3e e4 f4 e6 b4
       -1.6570578e-08 0.16138573 0.459037 -4.301902e-07
000020 c0 82 9a 3e cf 4e 06 b7 8c bd af 3e 43 00 9d 3e
       0.3017788 -8.0053715e-06 0.343243 0.30664262
000030 9d e2 76 be 4d ba 11 b8 5b 81 db 3d e0 b9 5e 3e
       -0.24109884 -3.47442e-05 0.10718032 0.21750593
000040 70 e8 bd 3e 65 cc 0c bf eb 90 23 bf b6 1a 14 3f
       0.37091398 -0.5499938 -0.63893 0.5785326
000050 d7 48 9c 3e 95 04 13 3f 0d 0d fa 3e 15 14 aa 3e
       0.30524322 0.57428867 0.48838082 0.33218446
000060 5e ea 48 3e 63 35 44 3e 7d 3a 1d 3e 68 da c8 3d
       0.19620654 0.1916099 0.15354343 0.09807283
000070 fd 18 fe 3e 72 05 cd 3c 28 93 28 3e 27 4c a7 3e
       0.4962844 0.02502701 0.16462386 0.32675287
000080 24 46 84 3e 92 57 e3 3e a3 18 9b be 93 9e a4 bc
       0.25834763 0.44402748 -0.30292234 -0.020095145
000090 cd 91 83 b4 65 34 a2 3e e0 1a 53 b3 42 e1 70 3e
       -2.4506735e-07 0.316806 -4.915171e-08 0.23523429
0000a0 74 25 70 3e 7d b5 9f 3e 83 d8 dd 3e c6 ac 93 3e
       0.23451787 0.31193152 0.43329248 0.28842753
0000b0 e8 6e 84 3e 66 7b 31 3f 5d 05 d8 3e 34 16 ae 3e
       0.25865865 0.69328916 0.42191592 0.34001315
0000c0 d2 a2 ba b3 e3 7d 80 3e 93 e2 9b 3e 98 95 1f 3f
       -8.690917e-08 0.25096044 0.304463 0.62337637
0000d0 0b 54 c7 3e fa ea a7 3e cf 17 cf be 99 9a c3 3e
       0.38931307 0.3279646 -0.40447852 0.38203886
0000e0 86 de 39 3e 49 06 81 3e 07 49 db be 4c d5 5a 3e
       0.18151292 0.25200108 -0.42829153 0.21370429
0000f0 95 96 13 3f e1 24 10 3f 18 71 c8 be e5 7e 72 3e
       0.57651645 0.5630627 -0.39148784 0.23681219

45 f4 [64, 64, 3, 3]
000000 ba 0e dd 3c 37 89 36 bd c4 9e 1b bc f0 14 0f bd
       0.026984561 -0.044564452 -0.009498302 -0.034932077
000010 02 bf bf be a2 3a cc bd 1d ad fb 3c 84 42 39 bd
       -0.37450415 -0.09972121 0.030722195 -0.04522945
000020 12 ef b9 bb 5c c5 56 bb 59 06 db 3b 63 21 89 39
       -0.0056742514 -0.0032771444 0.0066841063 0.0002615555
000030 19 48 9e 3c 77 bb 9a bd 80 27 32 bc d8 f6 c9 3a
       0.019321488 -0.07555287 -0.010873675 0.0015408648
000040 25 67 5c 3b 27 93 09 3d e5 25 98 b0 5e 0c 9e b2
       0.0033630815 0.0335876 -1.1070226e-09 -1.8399245e-08
000050 ea b2 84 b2 e0 f7 2e 32 0e 1a 86 31 ae eb c9 31
       -1.5448183e-08 1.0184493e-08 3.9028754e-09 5.8766636e-09
000060 63 3a b7 31 c2 d2 8d 31 74 9f f9 31 ec 42 1b 3a
       5.3326388e-09 4.1276005e-09 7.2649815e-09 0.0005922753
000070 fd 52 1d bb 62 ad 55 3b 3d 4a 23 bc 7e 03 03 bd
       -0.0024005764 0.0032604565 -0.00996643 -0.031985752
000080 f6 5a f1 bb 5f bb 46 3c 0e 44 e0 bb a3 89 23 bb
       -0.0073655797 0.012129634 -0.0068440503 -0.0024953864
000090 f3 e7 1e b1 e4 97 2b b1 16 c3 b9 30 08 de c1 b0
       -2.3123874e-09 -2.4970115e-09 1.3515968e-09 -1.4105703e-09
0000a0 87 eb 3e b0 dd 1a 20 b1 f6 77 72 b0 17 fe 64 2f
       -6.94563e-10 -2.3298334e-09 -8.820956e-10 2.082675e-10
0000b0 55 28 1c 2f c5 73 a9 3c 88 d2 e1 3b a2 67 f8 bb
       1.4202446e-10 0.020685086 0.0068915524 -0.0075807134
0000c0 d4 0c c3 3c 4c c8 3f 3d aa e5 be 3c 82 7a c8 bb
       0.023809828 0.046821877 0.023302872 -0.0061181197
0000d0 e0 21 98 3b f1 08 82 39 bd 13 95 bb 15 06 8f bc
       0.00464271 0.00024802194 -0.004549472 -0.017458955
0000e0 2e 67 e4 bc 48 85 5e 3b 8a 0f 6f bc 1f d8 b8 bb
       -0.027881231 0.0033953954 -0.014591107 -0.005640998
0000f0 f5 74 d2 ba b2 ac 65 3c 9b d6 d7 3a fc 7a 37 b2
       -0.0016056584 0.014018225 0.0016467156 -1.0679965e-08
000100 67 ed 20 b2 0f 6c b5 31 e7 fb 57 b2 d7 ad c6 b1
       -9.367205e-09 5.280078e-09 -1.2571923e-08 -5.7823217e-09
000110 e1 bf 10 32 77 0a a9 b1 61 a0 46 30 39 34 31 32
       8.425531e-09 -4.919737e-09 7.225989e-10 1.031463e-08
000120 17 e5 48 3c c6 84 cc 3a 09 03 2f ba 25 36 05 3d
       0.0122616505 0.0015603534 -0.00066761725 0.03252234
000130 3f 28 3a 3b d1 c4 96 3b 73 9f d6 3c a9 e7 5c 3c
       0.0028405336 0.004601099 0.026199078 0.013482966
000140 f5 57 34 3c 06 f0 15 31 cf e5 dc b3 04 ee b1 b1
       0.011007299 2.1818791e-09 -1.028635e-07 -5.1784372e-09
000150 3a 9a 08 b3 e2 a1 de b3 73 94 30 33 48 6c b3 33
       -3.1805236e-08 -1.0367127e-07 4.1113207e-08 8.355033e-08
000160 b3 66 fb 32 fb 58 1d 34 38 57 e0 3b 78 53 f5 3c
       2.9266948e-08 1.4654135e-07 0.006846335 0.029947028
000170 a0 5f b1 bc dc 3d 41 3d 7b c5 fa bd 12 5d 80 bd
       -0.021652043 0.047178134 -0.12244698 -0.06267752
000180 e9 4d cf 3b 2d c9 01 3d d4 05 c1 bc ef e3 08 b8
       0.0063264263 0.031685997 -0.02356235 -3.2637206e-05
000190 50 2b 21 3d b3 1b 9a 3c 4e 50 a2 3c 86 e2 a8 3c
       0.039347947 0.018812036 0.019813683 0.020615827
0001a0 04 cf a9 3c f4 d8 d3 3c a0 43 44 3c 3f 8c 90 3c
       0.020728596 0.025860287 0.011979014 0.017645
0001b0 18 e3 65 bc dd 59 00 bd d3 f1 0c bc 7d ce 69 bc
       -0.014031194 -0.0313357 -0.008602577 -0.014270422
0001c0 35 c2 97 bd 9d 04 c7 bc 2f bd 3f 3a 30 d7 7a bc
       -0.07410089 -0.024294192 0.00073142623 -0.015310094
0001d0 08 bc 3c 3c bb 28 83 b4 34 f8 ab b4 10 d4 2b 32
       0.0115194395 -2.4430287e-07 -3.2031824e-07 1.00017274e-08
0001e0 ef 26 3d b4 b8 84 b1 b4 96 11 ad 34 6b ce e8 34
       -1.761616e-07 -3.3065385e-07 3.2236557e-07 4.3363556e-07
0001f0 d5 fb fa 34 c7 98 4a 35 fc 37 cc 3a 3a 60 cd bb
       4.674936e-07 7.5473184e-07 0.001558065 -0.0062675746
000200 5a e6 a0 bc 0f c1 4c bc 0a f9 1d 3d 9a f1 13 bc
       -0.01964109 -0.012497201 0.03856758 -0.00902977
000210 d2 9a b3 bc 3f bc 8c 3c f7 3f e6 bc e7 82 44 3c
       -0.02192441 0.017179606 -0.028106673 0.0119941
000220 9f 34 13 3c 86 b3 b4 3c 4d df 5b 3b c5 4d 04 bd
       0.008984714 0.02205826 0.0033549846 -0.03230073
000230 b5 da d6 ba f7 8d 7a 3b 33 08 df 3a 52 af ff 3b
       -0.0016392084 0.003823159 0.0017015993 0.007802882
000240 e3 6a 8d 3a b2 df 3f 3c 01 2d 54 bc d4 f2 d8 bb
       0.0010789301 0.011711048 -0.012950183 -0.0066207442
000250 e4 d7 df bb b6 79 b2 3b 70 53 fb 3a 83 c4 0c 3d
       -0.006831156 0.005446638 0.0019174647 0.034367096
000260 b0 04 d9 3c 7f 13 83 3b 46 4a be 3a cd e5 85 bb
       0.026491493 0.004000127 0.0014517985 -0.0040862323
000270 e5 21 76 3b d3 48 e7 bb 0e ec 17 ba 9b c0 f4 3b
       0.0037556824 -0.007058242 -0.0005795368 0.0074692494
000280 96 16 10 3b 88 1c 13 3c ee cf f6 3b 0f 38 ba bb
       0.0021986119 0.00897897 0.0075321114 -0.0056829522
000290 0e 2b 2c bc bf b4 81 bb 85 d8 f3 bc 72 4b 41 b8
       -0.010508312 -0.003958314 -0.02976633 -4.608505e-05
0002a0 32 25 8e 3b 72 a1 f5 b8 f3 5e 0d 3b 0a 75 cb 3b
       0.00433793 -0.00011712582 0.0021571487 0.0062090205
0002b0 c9 4f b9 3b dd 04 ff 3c 03 fc ef 3c f2 06 47 bd
       0.005655263 0.031130249 0.029294973 -0.048590608
0002c0 77 ab b2 bb 5d c2 af bb 12 4e 16 bd a0 ab a8 bb
       -0.005452569 -0.005363746 -0.036695547 -0.0051474124
0002d0 fc d4 a7 bc 6b df 20 bd 32 15 bd 3b 67 e9 c0 bc
       -0.020487301 -0.039275568 0.005770349 -0.023548795
0002e0 b9 80 26 3b fc ee 8b bb 7c 18 ae bc 2e 28 d2 bb
       0.0025406315 -0.0042704325 -0.02125191 -0.006413481
0002f0 f4 01 bb bc dc 54 01 3c ee 06 57 3d a4 33 b8 3c
       -0.02282808 0.007893767 0.052496843 0.022485562
000300 52 dd 89 bc 9a fc 23 bb ab d9 91 3c 33 e0 ad bc
       -0.016829167 -0.0025022388 0.017803987 -0.02122507
000310 66 09 2f bb de 5e 52 3c cf d8 94 bb ac f6 06 ba
       -0.0026708483 0.012840001 -0.004542447 -0.00051484513
000320 a6 c3 d0 bc ad 36 bb bc db 67 2b 3c 62 fe b2 bc
       -0.025483917 -0.02285322 0.010461773 -0.021849815
000330 8c 54 4b bc 4c 1d 55 bc 22 73 f3 bc 47 6e 15 3d
       -0.012410294 -0.013007473 -0.029717986 0.03648212
000340 71 80 5e 3c 3d 04 03 3d 91 1a 1f 3c 95 b0 d0 bc
       0.0135804275 0.031986464 0.009710924 -0.025474826
000350 75 6a 11 3c 04 8b a0 3c 1c 1b 97 3c be e0 e4 3b
       0.008875479 0.019597538 0.018445544 0.006984799
000360 22 94 3f 3c 80 d1 90 bc c8 88 0f bd 3a 6b 2c 3d
       0.011693032 -0.017678022 -0.035042554 0.042094447
000370 1e c2 45 be 7c 19 a6 bc 40 06 3e bc 08 c9 b2 3c
       -0.19312331 -0.020275824 -0.01159817 0.021824375
000380 fd 2d 61 3c 57 9b a5 bc e3 de a7 3c 19 74 04 bd
       0.013743875 -0.020215673 0.020492023 -0.03233728
000390 10 cd 24 bb b4 a3 61 3c cb 7a 58 bc 70 8b bd 3c
       -0.002514664 0.01377194 -0.01321287 0.023137778
0003a0 90 21 96 bc 52 4b 09 bb 44 d0 0f ba 2a 45 8b 3c
       -0.01832655 -0.0020949435 -0.0005486051 0.017000753
0003b0 18 41 ef 3c 60 c3 a6 bc 4b d5 69 bd 02 6c 8a 3c
       0.029205844 -0.020356834 -0.057088178 0.016897205
0003c0 08 b4 0c 3b 1d 68 a5 3c b5 1a 1d 3b 14 7b 8c 3c
       0.0021469612 0.020191247 0.0023972217 0.017148532
0003d0 22 a9 5a bb ee 3c f1 ba 48 18 cf b9 dd 05 1b bd
       -0.0033364971 -0.0018404999 -0.00039500208 -0.03784739
0003e0 8d 6e 60 bb ce 4d 94 3c 9a 3a 9d 3c ef f5 ba 3c
       -0.003424558 0.018103506 0.019192982 0.022822348
0003f0 31 61 71 bc af f2 94 3c 0c 2b a6 bb df f2 f0 bc
       -0.014732645 0.018182127 -0.0050710496 -0.029412685

46 f4 [64]
000000 7e bc bc 3e b3 9b a6 3e 9d d9 26 3e e5 5b b8 3e
       0.36862558 0.32540664 0.1629395 0.3600761
000010 90 c6 26 3f 38 f2 e8 3e 08 eb af 3e 00 ff 14 3e
       0.6514673 0.45497298 0.34359002 0.145504
000020 2a 6b 0b 3f 60 c4 a2 3e c2 b6 de 3d 9e 32 52 3f
       0.54460394 0.31790447 0.10874702 0.82108486
000030 2e 5e 33 3e 3e e4 b5 3e 60 cd b4 3e ff a3 bf 3e
       0.17516395 0.35525697 0.3531294 0.37429807
000040 7b 03 28 3f d8 86 d4 3c b0 e4 51 3f 9e f8 9b 3e
       0.6563031 0.025943205 0.81989574 0.30463117
000050 04 fd f4 3e b8 5d 2d 3f 34 42 4b 3f 12 99 cf 3e
       0.47849286 0.6772113 0.7939789 0.4054647
000060 84 d8 e5 3d ea 8a 0a 3e f2 32 cd bd 53 87 33 3f
       0.11222938 0.13529554 -0.10019483 0.70128363
000070 00 f1 21 ba 94 42 79 be 30 dc 9b bd 7e 46 63 3f
       -0.00061775744 -0.24341804 -0.07610357 0.8877944
000080 38 7c 0a 3f 2b e5 8a 3f 44 df 5f 3f c6 1b 0c 3f
       0.5409579 1.0851187 0.8745005 0.5472988
000090 14 16 ff 3e 75 4b 01 3e 1f 86 89 3f a8 54 5a 3f
       0.49821532 0.12626441 1.0744056 0.85285425
0000a0 ec 4d 48 3e 97 6a 18 3f 24 a8 30 be a7 15 11 bf
       0.19560975 0.59537643 -0.1725164 -0.56673664
0000b0 8b ac ae 3e 89 e5 03 3f 3d 15 8d 3f 99 97 5d 3f
       0.34116015 0.5152212 1.1022106 0.86559445
0000c0 8a 17 5c 3f 16 f6 7f 3f c4 7c 2d 3f 57 f9 82 3f
       0.8597342 0.9998487 0.677685 1.0232342
0000d0 ba 33 c5 3e 70 d7 44 3f 30 62 7b 3f c0 51 22 bf
       0.38516027 0.7689123 0.981967 -0.6340599
0000e0 fc 97 1d 3f b2 b5 37 3e f8 36 0c 3f e8 10 d6 3d
       0.61560035 0.17940405 0.54771376 0.10452443
0000f0 d8 35 ba 3e f2 53 3d 3f de d3 51 bf 4c 36 03 3f
       0.36369205 0.73956215 -0.8196391 0.51254725

48 f4 [64, 64, 3, 3]
000000 c5 d9 9d 3c ca 0c 9f bd 31 36 68 bb 36 23 83 bd
       0.01926888 -0.07766111 -0.0035432691 -0.064032
000010 9a 1b 7b be 02 47 9c bd b2 ad 2e bd 71 0d 11 be
       -0.24522248 -0.07630731 -0.042646118 -0.14165284
000020 4c 39 26 bd 1e 40 4e bc 52 18 82 3c fe 21 cd ba
       -0.040581986 -0.012588529 0.015880737 -0.0015650389
000030 87 86 20 bb b0 ec 08 3d 68 0c 0c bc 3b 4c 35 bd
       -0.0024494247 0.033428848 -0.00854788 -0.044262152
000040 58 08 9e 3b 9d 87 0d 3b 81 89 5a bb b6 ed 6e 3c
       0.004822772 0.0021595724 -0.003334612 0.014583042
000050 9d 35 20 3c 50 c8 1e 3c bb 85 bc bb 41 2c 11 3c
       0.009778407 0.009691313 -0.0057532466 0.008860649
000060 bd b1 23 3c 4a 17 07 3c 9a 31 86 3b 68 8e c4 3c
       0.009991107 0.008245299 0.0040952684 0.023993686
000070 46 8a 4d bd f7 a5 1b bd 2e ce 27 3c 9e 13 f7 bd
       -0.050180696 -0.038000073 0.010242028 -0.120642886
000080 91 9c 65 bd 1d d8 4e bb 4e 2c 9b bd bf d9 17 bd
       -0.056057516 -0.003156192 -0.0757681 -0.037072893
000090 18 a8 3a 3c 41 58 21 bb f9 b9 59 bb 0d 66 0f 3c
       0.011392616 -0.0024619254 -0.003322242 0.008752358
0000a0 12 be 4e 3c 6a 1f ae bb 9b 03 71 3b d6 38 8e 3c
       0.0126185585 -0.0053138034 0.003677583 0.017361086
0000b0 f7 13 49 3b ea eb 46 3d 9d e5 44 3d bd e3 6d 3d
       0.0030682066 0.04856483 0.04807054 0.058078516
0000c0 1e 4f 75 3d ba 5e 39 3d 4b 64 8d 3d 9e f4 71 3d
       0.059889905 0.045256354 0.06903895 0.059071176
0000d0 a3 e9 4e 3d 67 50 78 3d 84 d2 53 3c ad e1 7c 3c
       0.050515782 0.060623553 0.012928609 0.015434665
0000e0 83 86 3d 3c 4a eb bc 3c 78 7a e0 bc af 4e 14 bc
       0.011567715 0.023061413 -0.027402148 -0.009051963
0000f0 8c 0f 01 bc 3e 86 ee bb cf 48 c5 bb 84 60 f7 bb
       -0.007877242 -0.0072791865 -0.0060206424 -0.0075493474
000100 b3 6e 46 3c 9d 64 6b bc 2d 7e a2 bc 06 f7 25 bc
       0.012111354 -0.01436725 -0.019835556 -0.010129696
000110 52 9b b5 bc 9a 80 82 3c 93 43 4c 3c 05 41 b4 ba
       -0.022168789 0.015930463 0.012467283 -0.0013752287
000120 96 7b ee 3c e0 e3 11 3d 7c 77 59 3d 9d c3 8d 3c
       0.029111665 0.03561771 0.053092465 0.01730519
000130 a1 44 24 3d 63 ba 1a 3d 3a 03 5a 3d cd a0 38 3d
       0.040104512 0.03777541 0.053225733 0.045075227
000140 73 a2 e2 3c 24 ba 09 3d a2 33 1c 3d 4a 4c e8 3c
       0.027665352 0.033624783 0.03813518 0.02835669
000150 b4 d8 a1 3c e3 af ae 3c c3 30 8f 3c e8 80 b5 3c
       0.019756652 0.021324104 0.017479306 0.022156194
000160 ff 6e 21 3d d9 03 0d 3d a1 39 f5 3b ae 3f 80 3c
       0.039412495 0.034427498 0.0074836765 0.015655365
000170 fb 05 41 3b 9f 57 bf bb ce 20 2a 3d 69 36 c0 3c
       0.0029453028 -0.0058393027 0.04153519 0.023463445
000180 58 93 0c 3b 17 bf 89 bb 9d 84 3b 3c 6f ba e6 3c
       0.0021450128 -0.004203688 0.011445192 0.02816507
000190 f9 4e f6 3c d7 2e 0b 3d 0b dd 35 bc aa 02 a8 ba
       0.030066954 0.033980217 -0.011100064 -0.0012818177
0001a0 c7 32 a2 3c 54 8d 9b 3c b6 51 04 3d 0e 69 0b 3d
       0.019799603 0.018988289 0.032304488 0.034035735
0001b0 4a fe 28 bd 45 e0 9f bc 13 62 a0 bc d7 d0 26 bc
       -0.041258134 -0.01951612 -0.019578015 -0.010181627
0001c0 d7 c8 a0 3c 8d 03 a0 3c 3c 5f a3 bc c0 a7 9a bd
       0.019627018 0.019532943 -0.019942872 -0.07551527
0001d0 5b 06 a7 bc e0 bf b9 bc 19 e4 55 bc 9f e8 05 3b
       -0.020388773 -0.022674501 -0.013054871 0.0020432842
0001e0 ff 2f 8c bc 2f 7f b8 bc 39 44 a5 3c 26 9d 00 3b
       -0.01711273 -0.022521583 0.020174133 0.0019624918
0001f0 32 98 67 3b 09 f5 31 3c 58 93 38 3c 71 73 83 3c
       0.0035338518 0.010861644 0.011265598 0.016046258
000200 10 dc e9 3c 26 fa ac 3c 41 d6 e1 ba 3e 96 83 3c
       0.028547317 0.021115374 -0.001722999 0.016062852
000210 44 df 95 3c ba 82 80 3a 09 8b 90 3c 91 da ca bb
       0.018294938 0.0009804585 0.017644422 -0.006190606
000220 2c 68 59 3b 9a e2 ba 3b ed 91 90 3c 3a 77 2c 3c
       0.0033173664 0.0057032825 0.017647708 0.010526473
000230 78 58 cf ba cf 98 e3 3a 39 d1 37 3a 79 6e 89 3c
       -0.0015819212 0.0017364266 0.00070120726 0.01677631
000240 d1 dc 8f bc 03 af bf bc d6 6b 19 bc a7 6a 70 ba
       -0.017561348 -0.023398882 -0.009364089 -0.0009171166
000250 f4 c3 a1 3c 81 c8 ef 3b 9e d7 8b bc f1 25 57 3c
       0.019746758 0.007317603 -0.017070588 0.0131316045
000260 52 55 d1 bb e5 a9 8f 3c bf 7a db bb f0 db be 3b
       -0.006388345 0.017537067 -0.006697982 0.0058245584
000270 e3 e0 0d 3c 3e 2b 2d bc 9f 87 52 3b e8 ac 20 3d
       0.008659574 -0.010569392 0.0032124294 0.039227396
000280 02 55 9a 3c ae ac de 3c 0c 1a 9a bb c9 9f a1 3b
       0.018839363 0.02718195 -0.004702812 0.004932378
000290 57 1b 4b ba c4 e6 01 3c a8 dc cd 3c 5a 02 be 3c
       -0.00077479094 0.007928554 0.025129631 0.02319448
0002a0 00 d0 87 39 d6 35 b5 bb 6e 53 52 3b c0 8e 99 3c
       0.0002590418 -0.0055300994 0.0032093185 0.018744826
0002b0 5d 26 0e 3d 66 cc 1e 3d 75 68 4f 3d f8 d8 ea 3c
       0.034704555 0.03876915 0.050636727 0.028667912
0002c0 bf 4a 79 3c c0 88 93 3c 02 76 06 3b 54 d3 a6 3c
       0.015215575 0.018009543 0.0020517115 0.020364441
0002d0 f5 37 02 bd 1d 9a 8d bc 9e 8d b6 bc 7a e4 ed bc
       -0.031791646 -0.017285401 -0.022284325 -0.02903961
0002e0 84 ea 4e bc c4 7a f0 bb 7d 71 17 bd 1f e6 d5 bc
       -0.012629155 -0.0073388536 -0.036973465 -0.026110707
0002f0 63 04 89 bb 98 e2 9f 3c e1 1c f2 3b ef f2 b2 3b
       -0.004181431 0.019517228 0.0073886965 0.005461089
000300 64 71 83 3c f8 ab 31 bc 53 07 5c bc 43 d6 aa 3c
       0.01604528 -0.010844223 -0.013429481 0.020854121
000310 09 72 2c bc 4e 70 99 3b 9b f1 e2 3c a2 fd c5 3c
       -0.010525235 0.004682577 0.027703097 0.024168793
000320 e3 c6 2d 3d 96 9d 7b 3b 84 49 56 3b fa 8b fb 3c
       0.042426 0.003839349 0.0032697627 0.030706394
000330 ba b6 fe 3c 97 29 97 3c cd 43 e8 3c c7 a0 42 3a
       0.03109299 0.018452449 0.028352642 0.00074244704
000340 78 84 c8 bb 11 3e d7 bb 6a 45 d5 bb 94 67 43 3c
       -0.006119307 -0.006568678 -0.006508519 0.01192655
000350 ea 75 53 bb 11 2a 30 3c bd 15 fa 39 74 ce 84 3a
       -0.0032266327 0.010752217 0.00047699912 0.0010132329
000360 ff ff 8c b9 31 55 b9 b9 be 6b 3f bb b8 19 0b 3b
       -0.00026893613 -0.00035349422 -0.0029208506 0.0021225046
000370 2e 16 2b 3c ba 13 4b 3c 80 99 45 3c 7d 77 b0 bb
       0.0104423 0.01239484 0.012060523 -0.005385338
000380 55 f4 30 3b d9 b8 c3 3c c7 c3 6c 3b 99 50 da 3b
       0.0027001102 0.023891853 0.0036127435 0.00666244
000390 51 7e d4 3a 87 26 f0 bb 20 43 83 bc 48 02 3d 3c
       0.0016211962 -0.0073288116 -0.016023219 0.011536188
0003a0 db 40 a0 37 44 52 3b b9 fc 7f 81 bc 7e 29 51 bc
       1.9103687e-05 -0.00017864356 -0.015808098 -0.01276624
0003b0 2e b4 af bc c7 b2 5b 3c c6 bb 94 3c 67 5d c0 3c
       -0.021448221 0.013409323 0.018155944 0.023482038
0003c0 38 c4 ba bc 99 8b 49 3b ff 17 37 3c da 9c cf 37
       -0.022798643 0.0030753373 0.011175155 2.4749363e-05
0003d0 24 71 fd 3b 23 84 c6 3c 83 d0 a1 bc 5a 4b a9 bc
       0.0077344347 0.02423293 -0.019752746 -0.020665813
0003e0 13 ea c7 bb 96 d9 aa bc fc 23 19 bc e7 50 a4 ba
       -0.006100902 -0.020855706 -0.009346958 -0.0012536318
0003f0 8d f6 d1 bc 54 a3 b3 3c b1 fe 5c 3a a2 4d 57 bc
       -0.02563026 0.021928467 0.0008430286 -0.013141068

49 f4 [64]
000000 e3 f5 d2 3d d6 87 4a 3b 4c 27 a0 bf 08 2e b4 be
       0.103008054 0.0030903718 -1.2511992 -0.3519137
000010 f0 50 a8 3d 8b 37 10 be c7 52 da 3c 09 98 a7 3c
       0.082185626 -0.14083688 0.0266508 0.020458238
000020 8a 27 73 3f 25 63 7e bd 8d 5b 94 3d 84 60 f6 3e
       0.94982207 -0.06210627 0.072440244 0.4812051
000030 ff 9c a9 3d 6a 2c 26 be c0 45 ab 3a 04 d4 0c 3e
       0.08281898 -0.1622788 0.0013067052 0.13752753
000040 7c b9 36 bd 10 e5 33 be 3a de 84 be 34 d3 ca be
       -0.044610485 -0.17567849 -0.25950795 -0.3961426
000050 34 9d 0c bf 0e 3c 00 3e 95 66 a4 be 9a 98 0a 3e
       -0.5492737 0.12522909 -0.32109514 0.13534775
000060 bd cd 1a bd 87 ca 17 3f 90 2f 0f bd 18 7c d9 bd
       -0.037793864 0.5929341 -0.03495747 -0.10619372
000070 6d cf 92 3e 4e 53 6b 3e 9d d6 f5 3e d5 1e 8b 3e
       0.28673878 0.22980997 0.480153 0.2717196
000080 e0 32 9f bb 38 84 ab 3e 73 3b e0 3d 12 e3 5a bd
       -0.0048583597 0.33499312 0.10948839 -0.053439207
000090 7d e6 54 bf c2 fd 02 3f c2 c3 cb 3e 5e 42 fb 3e
       -0.831642 0.51168454 0.3979779 0.49074072
0000a0 6c 6d c1 3e 9e 3c 03 3e 14 ed f4 3c 50 f8 bf 3d
       0.37778795 0.12816092 0.029898204 0.09373534
0000b0 09 c3 44 be 60 fe 12 bd d7 85 e4 3f b6 a6 56 bd
       -0.19215025 -0.035887122 1.7853345 -0.05240508
0000c0 3f 09 2f 3c 0f 8a 57 3e 1e 3f 3a 3f f4 e8 f2 bd
       0.010683357 0.21048759 0.7275256 -0.118608385
0000d0 bc 3f 96 3d 54 b2 66 3e 44 c9 cf be 78 c9 79 3e
       0.07336375 0.22528964 -0.4058324 0.2439326
0000e0 04 ac 29 3e 9d b7 e4 bd b8 3f b6 3e 21 97 8e be
       0.16569525 -0.11167834 0.3559549 -0.27849677
0000f0 47 2e 59 bd b5 e2 40 3e f0 93 8a be ce dd 8f 3e
       -0.05302265 0.18836482 -0.27065992 0.2809891

51 f4 [64, 64, 3, 3]
000000 b3 c0 15 3c 25 ba 1f bb 37 a2 e4 ba 9c 2a 15 bc
       0.009140181 -0.0024372425 -0.0017443363 -0.009104397
000010 69 70 bb bb 5b b1 85 bc 65 d1 c0 3c a0 b6 0f 3d
       -0.0057201874 -0.016319921 0.023537347 0.035086274
000020 be a4 a4 3c f4 26 d7 3b cd cf 82 bb f5 29 a0 bb
       0.020098086 0.006565923 -0.003992057 -0.004887814
000030 44 c3 a1 bc 2e eb 34 bc 3f c1 cf bc 37 63 2a ba
       -0.01974643 -0.011042399 -0.025360702 -0.00064997695
000040 d4 77 b1 3c 4c 56 c1 3c 24 c8 23 3c 02 07 fd 3a
       0.021663584 0.02360072 0.009996448 0.0019304457
000050 cc 8f 93 bb 3e 9c 8d bb d9 35 41 bc cc cb 56 bc
       -0.004503226 -0.004321604 -0.011792623 -0.013110112
000060 12 b9 64 bc b2 33 b7 bc 56 88 45 bc e2 90 33 bb
       -0.01396014 -0.022363517 -0.012056431 -0.002739959
000070 a2 27 af bc 60 40 03 3d cc e8 7b 3c 16 93 e1 bb
       -0.021381203 0.032043815 0.015375327 -0.006883989
000080 ff 4f d8 3c cd 0b 74 3c c3 e6 7f 3c ae c3 e2 bc
       0.026405333 0.014895392 0.015618983 -0.027681198
000090 4f 10 f3 3c 63 3c 15 3d 75 b4 01 3d 6d c8 91 3b
       0.029670862 0.036434542 0.031666238 0.0044489414
0000a0 31 40 ee 3b ab be cb ba ad 3c be 3b d7 46 43 3c
       0.007270836 -0.0015544494 0.005805573 0.011918745
0000b0 9b 26 81 bb 42 f6 a5 3c c8 ed af 3c 5f 95 05 3d
       -0.0039413697 0.020259026 0.021475688 0.032613155
0000c0 f9 1f 2f 3c 89 df 82 bc a9 c3 c5 38 55 b9 0f 3c
       0.010688775 -0.01597573 9.4301366e-05 0.008772214
0000d0 dd 3c ad bb 60 d1 53 bb 92 35 1e 3c 26 67 1a 3b
       -0.0052867965 -0.0032320842 0.009656327 0.0023560016
0000e0 b4 38 6b bc 35 61 d7 3a 73 ec 40 bc 8a 45 9c bc
       -0.014356781 0.0016432168 -0.011775124 -0.019076128
0000f0 27 32 0c 3c 08 cb f2 3b ce 93 d9 3b ad 9b 51 3c
       0.008556879 0.007409457 0.006639934 0.012793464
000100 20 ec 11 3b 05 a4 29 bc aa ef 03 bc 6f 3a 2f bc
       0.0022265986 -0.010354047 -0.008052746 -0.010695084
000110 e6 a7 0c bd 88 e8 10 3c a3 ad 12 3d 66 d4 a2 3c
       -0.034339808 0.008844502 0.035810124 0.01987667
000120 d5 9a 65 bb 86 8e b1 3b fb d2 2f bc c0 42 c6 bc
       -0.0035034914 0.0054186014 -0.010731454 -0.02420175
000130 ea be 80 bc 28 3d 66 bb 9f 12 ce 3b 50 d9 3e 3d
       -0.015716035 -0.0035131667 0.006288841 0.046593964
000140 ec c9 93 3c 78 ad 95 3c 5a 0d ab 3c 48 c4 9d 3c
       0.01804062 0.018271193 0.02088039 0.019258633
000150 45 af 3b 3c b7 14 f8 3b 3e 97 43 3c fd 61 ff bb
       0.011455362 0.007570829 0.011937914 -0.0077936635
000160 91 ce 90 bb 7a 93 13 bb 7c 92 94 bc b3 d1 1e bd
       -0.004419156 -0.0022518323 -0.018136255 -0.038774204
000170 35 f9 e7 bc 55 2c 46 bc 93 2d 76 3c 42 2c 06 3c
       -0.028317073 -0.0120955305 0.015025514 0.008189263
000180 cc 65 be bc 4f fe 5f bd 36 c4 22 bd 7b e2 d0 bb
       -0.0232419 -0.054685887 -0.039737903 -0.006374655
000190 1d f3 96 bc 82 f0 2b bd 7c 32 cf bb b8 c6 6c 3d
       -0.018426472 -0.041977413 -0.006323157 0.0578067
0001a0 6e e7 18 3d ab 2e 49 3c 84 5b 77 bd 06 c8 8a 3d
       0.037330084 0.012279193 -0.06039001 0.06776433
0001b0 bb 07 f9 bb 81 e2 00 bd 09 28 c5 bc 12 6f fa 3b
       -0.0075997985 -0.03146601 -0.024066942 0.007642635
0001c0 87 ef 20 3b 56 99 f3 bc 51 ec 29 bc a1 61 46 3d
       0.0024556832 -0.029736202 -0.010371284 0.04843295
0001d0 65 1b ec bc 04 16 c2 bb 98 e6 5e bc 7e 46 79 bc
       -0.028821656 -0.0059230346 -0.0136047825 -0.015214561
0001e0 fe a6 25 bb 79 92 53 bb cc 75 f8 bb 78 e5 06 3b
       -0.0025276537 -0.003228335 -0.007582402 0.0020583551
0001f0 f6 50 89 3c de f8 ab 3b 42 e5 ad 3b b4 fc 7b 3c
       0.016762238 0.005248173 0.0053068707 0.015380073
000200 77 8c 05 bc 37 e2 63 3c 98 39 9a 3b 08 1d 83 bb
       -0.008151165 0.013908914 0.0047065727 -0.0040012635
000210 24 ed 55 bc e2 e5 eb bb b3 19 d2 3c 43 3e 05 bd
       -0.013057027 -0.007199035 0.02564702 -0.03253008
000220 bd 57 9c bc 83 bc fb 39 64 04 b6 bc d0 56 65 bc
       -0.019084806 0.00048014903 -0.02221889 -0.0139977485
000230 8e 4d c4 ba a9 61 15 3c 60 ba f2 3b a4 4f 39 3c
       -0.0014976726 0.009117522 0.0074074715 0.011310492
000240 14 3c 15 bc fb 45 0e 3c d7 87 b8 bb f1 b2 25 bc
       -0.009108562 0.008683677 -0.0056314277 -0.010113464
000250 ba ea e2 3b a9 0e d8 bb 22 3e 78 bc e2 8c 76 bb
       0.0069249542 -0.0065935445 -0.015151532 -0.0037620594
000260 a9 d1 02 bc 11 19 ed bc 61 8f 27 bc 13 f7 0f bd
       -0.007984557 -0.028942617 -0.010227055 -0.035147738
000270 85 ad 01 3c 0f 33 4a 3d bd 12 bc 3c 86 bc 26 3c
       0.007914905 0.0493651 0.022958154 0.010176783
000280 80 c1 60 bc f8 17 63 3b fa a0 05 3c 34 a7 65 3c
       -0.013718009 0.0034651738 0.008156056 0.014016915
000290 90 20 76 bc 7d 0d 82 3c d5 a5 35 3d 36 1f 2a 3a
       -0.015022412 0.015875572 0.044347603 0.0006489636
0002a0 68 14 3c 3b 0c e4 65 3b cb f7 34 3c 46 26 e1 bc
       0.0028698687 0.0035078553 0.011045407 -0.02748407
0002b0 dc 10 45 bd a5 e9 7f bc 21 a1 f0 bb 10 ab a7 3c
       -0.04811178 -0.01561967 -0.007343427 0.020467311
0002c0 73 dd ff 3a 1e b3 4f 3c 8d ec 94 3d c8 05 2b bc
       0.0019520953 0.012676982 0.07271681 -0.01043839
0002d0 e6 0f 4e 3c 2c e2 08 3c 52 b5 a0 ba 53 b1 0b 3d
       0.012577033 0.008354705 -0.0012261069 0.034104656
0002e0 7c df 6e 3c fe 10 49 3c 3b fc b7 bc 91 06 a8 3b
       0.01457965 0.012272118 -0.02245914 0.005127736
0002f0 a8 e1 b2 3c e8 23 79 bc 58 a3 65 bb ac 43 d5 bc
       0.021836117 -0.015206315 -0.0035039987 -0.026033245
000300 46 6c 44 3b c7 91 ba 3c 3f c3 01 bc 89 9f 0d bc
       0.0029971763 0.02277459 -0.007920085 -0.008643993
000310 40 06 92 bc 9d 41 57 bc 7d ef 33 3c 7d 88 b3 3a
       -0.017825246 -0.013138202 0.010982391 0.0013697293
000320 0e e8 ca 38 78 35 5e 3a 81 55 36 bd b6 7a 92 bc
       9.675334e-05 0.00084765954 -0.044515137 -0.017880779
000330 f1 b9 8c 3c a0 87 c0 3c a0 78 dc bc 13 7f b4 3c
       0.017178508 0.023502171 -0.026912987 0.02203325
000340 92 6e ba 3c b1 56 5e 3c 91 7a 20 3c 9b dc 06 bc
       0.022757802 0.0135704735 0.009794847 -0.008231307
000350 76 e2 41 bc b9 fd 7e bc da 7f 7f bc 08 5c 2b bc
       -0.011833778 -0.015563422 -0.015594447 -0.010458954
000360 78 be df 3b de bd 17 bc 0f 03 d8 bb 45 90 56 bc
       0.0068281256 -0.009261576 -0.0065921615 -0.01309592
000370 e9 6f 6d bb 7d ec 2e bc 35 8f 92 ba 7b 19 5c 3c
       -0.0036230034 -0.0106765 -0.0011181595 0.013433809
000380 4e 6c 6f 39 f4 68 e9 bb 70 59 4a bc 63 f0 b8 3b
       0.00022833163 -0.007123107 -0.012350425 0.0056438907
000390 14 d7 89 bc 21 0e 46 bc a9 80 d7 3c 39 6e 0b 39
       -0.01682619 -0.0120883295 0.026306467 0.00013297134
0003a0 d0 c4 93 3b b8 15 2f bc 48 2c 9f bb d7 40 e3 b9
       0.004509546 -0.0106863305 -0.0048575737 -0.00043345123
0003b0 8f 43 40 bc 0e 62 94 bc 75 14 71 bc e6 98 89 3c
       -0.011734857 -0.018113162 -0.01471435 0.01679654
0003c0 4d fe 17 bd 0f 1d d3 bd ef 1c e5 bc ae 85 b9 39
       -0.037107754 -0.10308277 -0.027967898 0.0003538555
0003d0 fa 51 95 3c ca 0c fb 3b ac d0 30 3b 3d db 11 3c
       0.018227566 0.0076614367 0.0026979847 0.008902368
0003e0 9c 14 c3 bb ae 37 0b bb a4 4d 02 bc 4c 05 04 bc
       -0.0059533846 -0.0021242904 -0.007953081 -0.0080579035
0003f0 da ea 6a 3b 5f 66 a7 3c 5e e1 90 3b 05 eb c9 39
       0.003584555 0.020434557 0.004421397 0.0003851281

52 f4 [64]
000000 b2 25 50 3e f4 5c 82 bf c6 db 17 3f 20 d8 10 3e
       0.2032688 -1.0184617 0.5931972 0.14144945
000010 54 f1 93 3e 6b c8 53 3f a1 ca 48 3e a4 18 a1 3c
       0.28895056 0.8272769 0.19608547 0.01966507
000020 33 e0 79 3e f9 e3 ad 3e 70 ea cb 3e bb d3 66 3e
       0.24401931 0.33962992 0.398273 0.22541706
000030 ea 7b 53 3f ad 42 a6 3e 80 8f f4 bd fa 67 ee bd
       0.8261095 0.32472745 -0.11941433 -0.11640926
000040 02 d2 71 3e 4a a5 98 3d 69 86 2e 3f 3e 16 40 3e
       0.23615268 0.074534014 0.68173844 0.18758485
000050 82 70 78 be 14 09 49 3f ca c4 34 3f 62 9f 43 bd
       -0.24261668 0.7852948 0.70612776 -0.04775942
000060 84 a9 4e be 10 f9 32 3f 4c 8e 54 3f 0b 08 e9 3e
       -0.20181853 0.6991129 0.8302963 0.4551395
000070 46 d1 e3 be 93 9f 14 3d 3a 10 de be ad 39 8b 3f
       -0.444956 0.036284994 -0.43371755 1.0876976
000080 6a 8c e8 3e 70 12 49 bc 3e c0 53 3f 1c 9d 9a 3f
       0.45419627 -0.012272462 0.82715213 1.2079196
000090 b8 4e a8 bc 0e cf c3 bd 37 5b a7 3e 90 eb 25 3f
       -0.020545349 -0.09560977 0.3268678 0.64812565
0000a0 b2 69 4f bf 59 77 fe 3d 59 d3 e2 be af 4d f7 3e
       -0.81020653 0.124251075 -0.4430187 0.48301455
0000b0 93 1e 12 3f e1 84 d5 3d 2b 33 0c be 17 f7 db bd
       0.570779 0.10425735 -0.13691394 -0.10740488
0000c0 1f ed 81 bf d5 03 ad 3e 82 88 01 bd 3f 47 2f 3f
       -1.0150489 0.33791986 -0.031624325 0.6846809
0000d0 8c ef 15 3e 51 f7 b3 3e 83 fb 4c 3f a9 17 89 3d
       0.14642161 0.35149625 0.80071276 0.06693966
0000e0 53 19 d5 3e 7e 66 b5 3e 6a 49 38 3d 34 f9 5f 3f
       0.41620883 0.35429758 0.044991888 0.8748963
0000f0 d4 1f 0e 3f a3 c0 0d bd f7 1f 3a bf 1a 22 0e 3f
       0.55517316 -0.03460754 -0.72705024 0.55520785
