docs/onnx_files/resnet18_conv3.onnx (onnx, 333815 bytes, 5 tensors)

layer1.0.conv2.weight f4 [64, 64, 3, 3]
0	0x3cd48e53	0.025946772
1	0xbdd62bbf	-0.10457563
2	0xbb9c580a	-0.0047712373
3	0xbdb095c6	-0.08622317
4	0xbea910fb	-0.33020768
5	0xbdd26ffb	-0.10275265
6	0xbd6b3739	-0.05742571
7	0xbe43528b	-0.19074456
8	0xbd5fd4b9	-0.054646228
9	0xbc8add5c	-0.016951256
10	0x3caf2e63	0.021384424
11	0xbb0a1cb7	-0.0021074244
12	0xbb582865	-0.0032983061
13	0x3d3860ad	0.045014072
14	0xbc3c958c	-0.011510264
15	0xbd742105	-0.059601802
16	0x3bd4cd0b	0.0064941696
17	0x3b3e942c	0.0029080017
18	0xbb932317	-0.004490267
19	0x3ca0ddc3	0.019636994
20	0x3c57bb70	0.013167247
21	0x3c55cf8a	0.013049969
22	0xbbfddb7e	-0.007747113
23	0x3c437c09	0.011931428
24	0x3c5c6cbe	0.0134536605
25	0x3c35e899	0.011102819
26	0x3bb4b350	0.00551454
27	0x3d045678	0.032309026
28	0xbd8a62ed	-0.0675715
29	0xbd519720	-0.051169515
30	0x3c61f5ec	0.0137915425
31	0xbe265a2a	-0.16245332
32	0xbd9a97e3	-0.07548501
33	0xbb8b43b2	-0.0042500133
34	0xbdd0f34e	-0.10202657
35	0xbd4c79f9	-0.04992101
36	0x3c7b5853	0.015340882
37	0xbb5942ce	-0.003315139
38	0xbb92975d	-0.0044736103
39	0x3c41186c	0.011785608
40	0x3c8b3229	0.016991692
41	0xbbea77a2	-0.0071553746
42	0x3ba24539	0.0049520996
43	0x3cbf82d0	0.023377806
44	0x3b8761d5	0.0041315355
45	0x3d85ee25	0.06539563
46	0x3d84912f	0.06473004
47	0x3da02ab0	0.07820642
48	0x3da52981	0.08064557
49	0x3d799ccf	0.06094056
50	0x3dbe649d	0.09296534
51	0x3da2e77e	0.0795431
52	0x3d8b4f7e	0.06802271
53	0x3da72f73	0.08163347
54	0x3c8e9dba	0.017409194
55	0x3caa42b3	0.020783758
56	0x3c7f3543	0.015576663
57	0x3cfe643f	0.03105366
58	0xbd172321	-0.036898736
59	0xbc47b48e	-0.012189044
60	0xbc2dc9da	-0.010607207
61	0xbc209819	-0.009801888
62	0xbc04d3f8	-0.008107178
63	0xbc268df0	-0.0101656765
64	0x3c8599d7	0.016308708
65	0xbc9e7c60	-0.019346416
66	0xbcdace97	-0.026709838
67	0xbc5f7b7b	-0.01364028
68	0xbcf48b85	-0.029851684
69	0x3cafbacf	0.021451382
70	0x3c8986f7	0.016787989
71	0xbaf2b935	-0.0018518331
72	0x3d2090ec	0.03920071
73	0x3d44734a	0.04796151
74	0x3d926a99	0.07149238
75	0x3cbee4f8	0.02330254
76	0x3d5d328a	0.054003276
77	0x3d5059e8	0.05086699
78	0x3d92c8af	0.071671836
79	0x3d789d10	0.06069666
80	0x3d1896c4	0.037253156
81	0x3d397555	0.045277912
82	0x3d5255e4	0.051351443
83	0x3d1c66eb	0.038184088
84	0x3cd9efc5	0.026603589
85	0x3ceb3a2c	0.028714262
86	0x3cc0d0aa	0.023536999
87	0x3cf467f4	0.029834725
88	0x3d59616e	0.05307143
89	0x3d3de2be	0.046358816
90	0x3c251b09	0.010077246
91	0x3cacb1f2	0.021080945
92	0x3b81f589	0.0039660376
93	0xbc00d3c8	-0.007862993
94	0x3d65169f	0.055929776
95	0x3d0169c8	0.03159502
96	0x3b3d4b3f	0.0028883961
97	0xbbb97bfe	-0.005660533
98	0x3c7c8144	0.015411679
99	0x3d1b585b	0.03792606
100	0x3d25d5c4	0.040487066
101	0x3d3b6b31	0.045756523
102	0xbc74e405	-0.014946942
103	0xbae23c98	-0.001726049
104	0x3cda6910	0.026661426
105	0x3cd175f4	0.02556894
106	0x3d322d1c	0.04350005
107	0x3d3bb995	0.04583128
108	0xbd638f6d	-0.055556703
109	0xbcd74885	-0.026279697
110	0xbcd7f74f	-0.026363043
111	0xbc60a0c9	-0.013710209
112	0x3cd881b0	0.026429027
113	0x3cd77807	0.02630235
114	0xbcdbfda6	-0.026854347
115	0xbdd040cf	-0.10168611
116	0xbce0e8d9	-0.02745478
117	0xbcfa1fa0	-0.030532658
118	0xbc900249	-0.017579215
119	0x3b345109	0.002751412
120	0xbcbcc579	-0.023043381
121	0xbcf86fcb	-0.030326745
122	0x3cde8ab7	0.027165754
123	0x3b2d2fcf	0.0026426201
124	0x3b9bedaa	0.0047585564
125	0x3c6fa172	0.014625894
126	0x3c788af1	0.015169845
127	0x3cb101cf	0.021607308
128	0x3d1d7414	0.03844078
129	0x3ce8ecbb	0.028433194
130	0xbb180d49	-0.0023201278
131	0x3cb130ab	0.021629652
132	0x3cc9cff7	0.024635298
133	0x3aad0c3b	0.0013202498
134	0x3cc2a2f1	0.023759337
135	0xbc0893e8	-0.008336045
136	0x3b92604a	0.004467045
137	0x3bfba71c	0.007679833
138	0x3cc2ac38	0.02376376
139	0x3c683c6f	0.014174565
140	0xbb0b9a1d	-0.0021301575
141	0x3b193ca3	0.002338209
142	0x3a77858c	0.0009442202
143	0x3cb90f70	0.022590369
144	0xbcc1b858	-0.023647472
145	0xbd010e9f	-0.031508084
146	0xbc4e9769	-0.012609341
147	0xbaa1de3e	-0.0012349559
148	0x3cd9d3d4	0.026590265
149	0x3c217112	0.009853618
150	0xbcbc4e76	-0.022986632
151	0x3c90dafa	0.017682541
152	0xbc0cf0b7	-0.008602313
153	0x3cc173c7	0.023614777
154	0xbc13c584	-0.009019259
155	0x3c008082	0.007843139
156	0x3c3f0c62	0.011660667
157	0xbc692ed7	-0.014232359
158	0x3b8dbef1	0.0043257405
159	0x3d585c14	0.052822188
160	0x3ccfd165	0.025368402
161	0x3d15ec37	0.036602225
162	0xbbcf81ff	-0.0063326354
163	0x3bd9a320	0.0066417605
164	0xba88bf84	-0.0010433053
165	0x3c2eeba9	0.010676303
166	0x3d0a9a65	0.03383865
167	0x3cffdc06	0.031232845
168	0x39b6e153	0.00034881625
169	0xbbf402de	-0.007446631
170	0x3b8d9bcd	0.0043215514
171	0x3ccec66d	0.025241101
172	0x3d3f69f1	0.046731893
173	0x3d55d50b	0.052205127
174	0x3d8ba4e1	0.068185575
175	0x3d1e1e5b	0.038603168
176	0x3ca7d800	0.020488739
177	0x3cc6aa06	0.024250995
178	0x3b350f6c	0.00276276
179	0x3ce0a422	0.027422015
180	0xbd2f58fd	-0.042809475
181	0xbcbead16	-0.023275893
182	0xbcf5d1ca	-0.030007262
183	0xbd202b2f	-0.039103683
184	0xbc8b5016	-0.017005961
185	0xbc21e917	-0.009882233
186	0xbd4bed95	-0.049787123
187	0xbd1003a6	-0.03515973
188	0xbbb88096	-0.005630563
189	0x3cd74ba6	0.02628119
190	0x3c230299	0.00994935
191	0x3bf0f756	0.0073537035
192	0x3cb0ff0c	0.02160599
193	0xbc6f3f0f	-0.014602437
194	0xbc94242a	-0.01808365
195	0x3ce60af7	0.0280814
196	0xbc683572	-0.014172899
197	0x3bce9d6e	0.006305388
198	0x3d18cc10	0.037303984
199	0x3d054db7	0.032544818
200	0x3d6a006c	0.05712931
201	0x3ba9687f	0.0051699276
202	0x3b904691	0.0044029434
203	0x3d295ca4	0.041348115
204	0x3d2b7e81	0.04186869
205	0x3ccb8cc4	0.024847396
206	0x3d1c6134	0.038178638
207	0x3a830a1e	0.0009997522
208	0xbc070138	-0.008240037
209	0xbc10eb38	-0.008845143
210	0xbc0f9772	-0.008764135
211	0x3c838ff7	0.016059859
212	0xbb8e5f61	-0.004344866
213	0x3c6d376a	0.014478544
214	0x3a2860ac	0.00064230966
215	0x3ab2d514	0.0013643824
216	0xb9bddd8e	-0.0003621396
217	0xb9f98ff8	-0.00047600246
218	0xbb80e154	-0.003933111
219	0x3b3b4ec0	0.0028580874
220	0x3c666109	0.014061221
221	0x3c88ba64	0.01669044
222	0x3c850a4c	0.016240261
223	0xbbed9fac	-0.0072517004
224	0x3b6e47c7	0.00363587
225	0x3d03c6af	0.0321719
226	0x3b9f68cf	0.004864789
227	0x3c12fcc7	0.0089714
228	0x3b0f1166	0.0021830439
229	0xbc21b060	-0.009868711
230	0xbcb0c0bf	-0.021576283
231	0x3c7e8335	0.015534212
232	0x37d7ca94	2.572433e-05
233	0xb97c3d78	-0.00024055492
234	0xbcae6142	-0.02128661
235	0xbc8cd335	-0.017190555
236	0xbcec98ad	-0.028881395
237	0x3c93eb3d	0.018056506
238	0x3cc84774	0.024448134
239	0x3d018409	0.03162006
240	0xbcfb7e32	-0.030699823
241	0x3b87b261	0.0041411375
242	0x3c768c20	0.015048057
243	0x380bc828	3.3326593e-05
244	0x3c2aa34b	0.010414909
245	0x3d05a846	0.03263118
246	0xbcd9e4be	-0.02659833
247	0xbce3f732	-0.027827833
248	0xbc069944	-0.008215252
249	0xbce60f71	-0.028083535
250	0xbc4e36a9	-0.012586274
251	0xbadd4311	-0.0016880949
252	0xbd0d5d45	-0.034512777
253	0x3cf1e4dd	0.029528076
254	0x3a94cab6	0.0011351916
255	0xbc90f5b3	-0.017695284

23 f4 [64, 3, 7, 7]
0	0xbb1f09dc	-0.0024267351
1	0xbabb4e12	-0.0014290235
2	0xb9dcfdf1	-0.0004215087
3	0x3c8ecb95	0.01743106
4	0x3c5809f9	0.013185971
5	0x3b8260c2	0.0039788196
6	0xbb41c1a9	-0.0029564893
7	0x3b2929f1	0.0025812353
8	0x3b116d39	0.0022190346
9	0xbcd1bcc3	-0.025602704
10	0xbd85cbfa	-0.06533046
11	0xbd8160db	-0.06317302
12	0xbcf6456a	-0.030062396
13	0x3a647d9a	0.0008716226
14	0xbad3f69e	-0.001617152
15	0x3c617ae6	0.013762211
16	0x3d8cf15f	0.068819754
17	0x3e0c0b4a	0.13676181
18	0x3df7e6f1	0.121045955
19	0x3d748792	0.059699602
20	0x3c7296d0	0.014806464
21	0x3be8cea8	0.0071047135
22	0xbc7fbca2	-0.015608938
23	0xbd8e570d	-0.06950197
24	0xbdd13ec0	-0.10217047
25	0xbd8131e1	-0.06308342
26	0xb915a99d	-0.00014272933
27	0x3c5bce4c	0.013415884
28	0xbbd22465	-0.00641303
29	0x3b74e88e	0.0037370059
30	0x3c8a8254	0.016907848
31	0xbc4e72e0	-0.0126006305
32	0xbd9ec44a	-0.07752283
33	0xbdc89c8b	-0.09795483
34	0xbd75f39b	-0.060046773
35	0x3be9a1ae	0.0071298694
36	0x3c1c4ccd	0.009539795
37	0x3c6fd4a7	0.014638103
38	0x3d63f9cb	0.055658143
39	0x3dc5660d	0.09638605
40	0x3dbbbd3c	0.09166953
41	0x3d1e6ad6	0.038676105
42	0xbb51aa42	-0.003199235
43	0xba6059ac	-0.0008558284
44	0xbbb7cf1b	-0.0056094057
45	0xbc7b6212	-0.015343206
46	0xbd0fc3dd	-0.0350989
47	0xbc9ce457	-0.01915185
48	0xbab088ad	-0.0013468467
49	0xbb2df701	-0.002654493
50	0xbbcb2755	-0.006199757
51	0xbc042ffc	-0.008068081
52	0x3c0c78a2	0.008573683
53	0x3bf831a0	0.007574275
54	0x3921b98e	0.00015423281
55	0xbbc478a4	-0.005995827
56	0x3c2e5661	0.0106407115
57	0x3c003a91	0.007826463
58	0xbcc76f68	-0.024345115
59	0xbd935209	-0.07193381
60	0xbd9512db	-0.07278987
61	0xbd191efe	-0.037383072
62	0xb99c9d53	-0.00029871854
63	0xb94c7c24	-0.00019501202
64	0x3cbbc84c	0.022922657
65	0x3dbfcd10	0.093652844
66	0x3e37b98d	0.17941876
67	0x3e28d424	0.16487175
68	0x3daff2e8	0.085912526
69	0x3ceda51e	0.029009398
70	0xbab25d24	-0.001360808
71	0xbcf56554	-0.029955544
72	0xbdc8ac66	-0.097985074
73	0xbe0d5b41	-0.13804342
74	0xbdb69dad	-0.08916793
75	0xbc21d220	-0.009876758
76	0x3c6af06b	0.014339547
77	0xbc5568d7	-0.013025484
78	0xba9f7914	-0.0012166821
79	0x3bceace6	0.006307232
80	0xbd109c90	-0.03530556
81	0xbddc442e	-0.10755192
82	0xbe08226c	-0.13294381
83	0xbdae59f2	-0.085132495
84	0x3bfac974	0.0076534096
85	0x3c541198	0.012943648
86	0x3cbe2aa7	0.023213698
87	0x3d97c0ff	0.07409858
88	0x3e024e53	0.12725191
89	0x3de6461a	0.112438396
90	0x3d3d8864	0.04627265
91	0x3aa1f3d1	0.0012355988
92	0x3acc5876	0.0015590328
93	0xbb83aed2	-0.004018643
94	0xbc852fe6	-0.016258191
95	0xbd0d6749	-0.03452233
96	0xbc93634a	-0.01799168
97	0x3930490d	0.00016811882
98	0xb9f81124	-0.00047315017
99	0xbb0bd76e	-0.0021338123
100	0x3ba1de44	0.004939826
101	0x3cab4020	0.0209046
102	0x3caa257f	0.020769833
103	0x3c006d51	0.007838563
104	0xbb9969ac	-0.0046817865
105	0x3b6b08d6	0.003586342
106	0xbb8e51c6	-0.0043432442
107	0xbcf03a5a	-0.0293247
108	0xbd8cf6de	-0.06883024
109	0xbd71c272	-0.059023328
110	0xbcf7a733	-0.030231094
111	0xbbd5811d	-0.0065156356
112	0x3b164755	0.00229307
113	0x3c3b28ed	0.011423332
114	0x3d4f0234	0.05053921
115	0x3dcd2757	0.10017269
116	0x3da655f9	0.08121867
117	0x3cc71018	0.024299666
118	0x3b8c862b	0.004288455
119	0x3bc9ae9a	0.0061548473
120	0xbbc65a37	-0.006053235
121	0xbd3bebd0	-0.045879185
122	0xbd7fb9b7	-0.06243297
123	0xbcc8cbb4	-0.024511196
124	0x3c95ec45	0.018301139
125	0x3ce66eb5	0.028128961
126	0xbbd86911	-0.0066043218
127	0x3b8c7582	0.004286469
128	0x3cbc373c	0.022975557
129	0x3c69b1b6	0.014263561
130	0xbcdffedb	-0.027343204
131	0xbd75bfea	-0.059997477
132	0xbd1365b9	-0.035985682
133	0x3b9e7c86	0.0048366217
134	0xba207d26	-0.0006122164
135	0xbc10560d	-0.008809579
136	0x3c5b3a44	0.013380591
137	0x3d664db0	0.056226432
138	0x3d683f2b	0.056700867
139	0x3ce10f33	0.027473068
140	0x393664b8	0.00017394393
141	0x393db442	0.00018091596
142	0xbb1967c6	-0.00234078
143	0xbc527575	-0.012845387
144	0xbd0dcf41	-0.03462148
145	0xbce04192	-0.027375016
146	0xbc125731	-0.008931921
147	0xba1fdbc1	-0.00060981145
148	0xba1326d0	-0.00056133885
149	0x39e4bb62	0.0004362716
150	0xba473908	-0.0007599746
151	0xbba79099	-0.005113673
152	0xbb63b479	-0.0034745021
153	0xbbd8fa07	-0.0066216025
154	0x3be83522	0.007086412
155	0x3bf1ac49	0.0073752743
156	0x3c3601e6	0.011108851
157	0x3c8232be	0.015893336
158	0x3ca3d311	0.019998105
159	0x3ca1a4b0	0.01973185
160	0x3c8b4d2f	0.017004577
161	0xba84c15f	-0.001012843
162	0x399d86f4	0.0003004592
163	0x3baa125a	0.005190176
164	0x3bf572b5	0.007490481
165	0x3c0b331a	0.00849607
166	0x3c35c14b	0.011093448
167	0x3c848b70	0.01617977
168	0xbc050005	-0.00811768
169	0xbc312d42	-0.010814013
170	0xbbf56f0b	-0.007490044
171	0xbc5445ce	-0.012956096
172	0xbc847435	-0.016168693
173	0xbc1a5b1d	-0.009421137
174	0x3b43ff07	0.0029906647
175	0xbb722685	-0.003694923
176	0xbc8b215d	-0.016983682
177	0xbc9a7745	-0.0188557
178	0xbcad7cad	-0.021177614
179	0xbc9f29ea	-0.019429166
180	0xbc7c6be8	-0.015406586
181	0xbbe0442f	-0.0068440656
182	0x3b54ea3d	0.003248825
183	0xbb1c7a73	-0.0023876696
184	0xbac956ee	-0.001536099
185	0xba8fd2f4	-0.0010972903
186	0xbb2a6438	-0.0025999676
187	0xbb53111d	-0.0032206245
188	0xbb856241	-0.0040705507
189	0x3b81d505	0.0039621615
190	0x3b440919	0.002991265
191	0x3bd8b87e	0.00661379
192	0x3bc52e94	0.0060175154
193	0x3b66c84e	0.0035214606
194	0x3b9ff560	0.004881546
195	0x3acc3079	0.0015578411
196	0x3887e493	6.479877e-05
197	0x3adbfcee	0.0016783753
198	0x3bbe3b01	0.0058053737
199	0x3c07081c	0.0082416795
200	0x3bd1ff63	0.0064086183
201	0x3bb6ef7a	0.005582747
202	0xbb02b030	-0.0019941442
203	0x3bc4b1f9	0.0060026613
204	0x3c1ba14d	0.009498906
205	0x3c961b7d	0.018323654
206	0x3cf5d384	0.030008085
207	0x3d21d24d	0.0395072
208	0x3d183358	0.03715834
209	0x3cecdac3	0.028912907
210	0xbc02620c	-0.0079579465
211	0xbb4cee95	-0.0031270136
212	0x3b8a3ddb	0.0042187995
213	0x3c2ac2c3	0.010422411
214	0x3c9bb5aa	0.019007523
215	0x3cbb1aba	0.022839893
216	0x3ccb0b19	0.024785565
217	0xbcaa5137	-0.02079068
218	0xbccc9713	-0.024974382
219	0xbcb7e4d9	-0.02244799
220	0xbce35418	-0.02775006
221	0xbcca1db5	-0.024672369
222	0xbc5e8cf7	-0.013583413
223	0x3b184f29	0.0023240543
224	0xbc74c059	-0.014938437
225	0xbd0eb5a1	-0.034841184
226	0xbd283fdf	-0.041076537
227	0xbd36461e	-0.044500463
228	0xbd213d1d	-0.039364923
229	0xbcf32c11	-0.029684098
230	0xbc69839f	-0.014252572
231	0x3bb83b23	0.005622284
232	0xbb944e03	-0.0045259013
233	0xbc0f92ec	-0.008763056
234	0xbc3a583f	-0.011373579
235	0xbc50fd78	-0.012755744
236	0xbc1e1cdd	-0.009650436
237	0xbbe18e9b	-0.006883455
238	0x3c3badd6	0.01145502
239	0x3c462c21	0.012095482
240	0x3c64cca9	0.01396481
241	0x3c303e9b	0.010757114
242	0x3bee8fb3	0.007280314
243	0x3c09f501	0.00842023
244	0x3bba715f	0.0056897844
245	0xbb145a9c	-0.0022637015
246	0xbafb1469	-0.0019155863
247	0x3a3f31c7	0.0007293489
248	0x3bca959c	0.0061823856
249	0x3bc5c1d1	0.0060350676
250	0x3b4d86f7	0.0031360963
251	0xbbd0194c	-0.006350672
252	0x3b96421b	0.004585517
253	0x3bbe2255	0.0058024325
254	0x3c539168	0.0129130855
255	0x3cd21e28	0.025649145

24 f4 [64]
0	0x3e6b981c	0.23007244
1	0x3e83c77e	0.25738138
2	0xb58d814a	-1.0542947e-06
3	0xbf23e1fd	-0.64016706
4	0xb28e5716	-1.6570578e-08
5	0x3e25424d	0.16138573
6	0x3eeb06e6	0.459037
7	0xb4e6f4e4	-4.301902e-07
8	0x3e9a82c0	0.3017788
9	0xb7064ecf	-8.0053715e-06
10	0x3eafbd8c	0.343243
11	0x3e9d0043	0.30664262
12	0xbe76e29d	-0.24109884
13	0xb811ba4d	-3.47442e-05
14	0x3ddb815b	0.10718032
15	0x3e5eb9e0	0.21750593
16	0x3ebde870	0.37091398
17	0xbf0ccc65	-0.5499938
18	0xbf2390eb	-0.63893
19	0x3f141ab6	0.5785326
20	0x3e9c48d7	0.30524322
21	0x3f130495	0.57428867
22	0x3efa0d0d	0.48838082
23	0x3eaa1415	0.33218446
24	0x3e48ea5e	0.19620654
25	0x3e443563	0.1916099
26	0x3e1d3a7d	0.15354343
27	0x3dc8da68	0.09807283
28	0x3efe18fd	0.4962844
29	0x3ccd0572	0.02502701
30	0x3e289328	0.16462386
31	0x3ea74c27	0.32675287
32	0x3e844624	0.25834763
33	0x3ee35792	0.44402748
34	0xbe9b18a3	-0.30292234
35	0xbca49e93	-0.020095145
36	0xb48391cd	-2.4506735e-07
37	0x3ea23465	0.316806
38	0xb3531ae0	-4.915171e-08
39	0x3e70e142	0.23523429
40	0x3e702574	0.23451787
41	0x3e9fb57d	0.31193152
42	0x3eddd883	0.43329248
43	0x3e93acc6	0.28842753
44	0x3e846ee8	0.25865865
45	0x3f317b66	0.69328916
46	0x3ed8055d	0.42191592
47	0x3eae1634	0.34001315
48	0xb3baa2d2	-8.690917e-08
49	0x3e807de3	0.25096044
50	0x3e9be293	0.304463
51	0x3f1f9598	0.62337637
52	0x3ec7540b	0.38931307
53	0x3ea7eafa	0.3279646
54	0xbecf17cf	-0.40447852
55	0x3ec39a99	0.38203886
56	0x3e39de86	0.18151292
57	0x3e810649	0.25200108
58	0xbedb4907	-0.42829153
59	0x3e5ad54c	0.21370429
60	0x3f139695	0.57651645
61	0x3f1024e1	0.5630627
62	0xbec87118	-0.39148784
63	0x3e727ee5	0.23681219

26 f4 [64, 64, 3, 3]
0	0x3cdd0eba	0.026984561
1	0xbd368937	-0.044564452
2	0xbc1b9ec4	-0.009498302
3	0xbd0f14f0	-0.034932077
4	0xbebfbf02	-0.37450415
5	0xbdcc3aa2	-0.09972121
6	0x3cfbad1d	0.030722195
7	0xbd394284	-0.04522945
8	0xbbb9ef12	-0.0056742514
9	0xbb56c55c	-0.0032771444
10	0x3bdb0659	0.0066841063
11	0x39892163	0.0002615555
12	0x3c9e4819	0.019321488
13	0xbd9abb77	-0.07555287
14	0xbc322780	-0.010873675
15	0x3ac9f6d8	0.0015408648
16	0x3b5c6725	0.0033630815
17	0x3d099327	0.0335876
18	0xb09825e5	-1.1070226e-09
19	0xb29e0c5e	-1.8399245e-08
20	0xb284b2ea	-1.5448183e-08
21	0x322ef7e0	1.0184493e-08
22	0x31861a0e	3.9028754e-09
23	0x31c9ebae	5.8766636e-09
24	0x31b73a63	5.3326388e-09
25	0x318dd2c2	4.1276005e-09
26	0x31f99f74	7.2649815e-09
27	0x3a1b42ec	0.0005922753
28	0xbb1d52fd	-0.0024005764
29	0x3b55ad62	0.0032604565
30	0xbc234a3d	-0.00996643
31	0xbd03037e	-0.031985752
32	0xbbf15af6	-0.0073655797
33	0x3c46bb5f	0.012129634
34	0xbbe0440e	-0.0068440503
35	0xbb2389a3	-0.0024953864
36	0xb11ee7f3	-2.3123874e-09
37	0xb12b97e4	-2.4970115e-09
38	0x30b9c316	1.3515968e-09
39	0xb0c1de08	-1.4105703e-09
40	0xb03eeb87	-6.94563e-10
41	0xb1201add	-2.3298334e-09
42	0xb07277f6	-8.820956e-10
43	0x2f64fe17	2.082675e-10
44	0x2f1c2855	1.4202446e-10
45	0x3ca973c5	0.020685086
46	0x3be1d288	0.0068915524
47	0xbbf867a2	-0.0075807134
48	0x3cc30cd4	0.023809828
49	0x3d3fc84c	0.046821877
50	0x3cbee5aa	0.023302872
51	0xbbc87a82	-0.0061181197
52	0x3b9821e0	0.00464271
53	0x398208f1	0.00024802194
54	0xbb9513bd	-0.004549472
55	0xbc8f0615	-0.017458955
56	0xbce4672e	-0.027881231
57	0x3b5e8548	0.0033953954
58	0xbc6f0f8a	-0.014591107
59	0xbbb8d81f	-0.005640998
60	0xbad274f5	-0.0016056584
61	0x3c65acb2	0.014018225
62	0x3ad7d69b	0.0016467156
63	0xb2377afc	-1.0679965e-08
64	0xb220ed67	-9.367205e-09
65	0x31b56c0f	5.280078e-09
66	0xb257fbe7	-1.2571923e-08
67	0xb1c6add7	-5.7823217e-09
68	0x3210bfe1	8.425531e-09
69	0xb1a90a77	-4.919737e-09
70	0x3046a061	7.225989e-10
71	0x32313439	1.031463e-08
72	0x3c48e517	0.0122616505
73	0x3acc84c6	0.0015603534
74	0xba2f0309	-0.00066761725
75	0x3d053625	0.03252234
76	0x3b3a283f	0.0028405336
77	0x3b96c4d1	0.004601099
78	0x3cd69f73	0.026199078
79	0x3c5ce7a9	0.013482966
80	0x3c3457f5	0.011007299
81	0x3115f006	2.1818791e-09
82	0xb3dce5cf	-1.028635e-07
83	0xb1b1ee04	-5.1784372e-09
84	0xb3089a3a	-3.1805236e-08
85	0xb3dea1e2	-1.0367127e-07
86	0x33309473	4.1113207e-08
87	0x33b36c48	8.355033e-08
88	0x32fb66b3	2.9266948e-08
89	0x341d58fb	1.4654135e-07
90	0x3be05738	0.006846335
91	0x3cf55378	0.029947028
92	0xbcb15fa0	-0.021652043
93	0x3d413ddc	0.047178134
94	0xbdfac57b	-0.12244698
95	0xbd805d12	-0.06267752
96	0x3bcf4de9	0.0063264263
97	0x3d01c92d	0.031685997
98	0xbcc105d4	-0.02356235
99	0xb808e3ef	-3.2637206e-05
100	0x3d212b50	0.039347947
101	0x3c9a1bb3	0.018812036
102	0x3ca2504e	0.019813683
103	0x3ca8e286	0.020615827
104	0x3ca9cf04	0.020728596
105	0x3cd3d8f4	0.025860287
106	0x3c4443a0	0.011979014
107	0x3c908c3f	0.017645
108	0xbc65e318	-0.014031194
109	0xbd0059dd	-0.0313357
110	0xbc0cf1d3	-0.008602577
111	0xbc69ce7d	-0.014270422
112	0xbd97c235	-0.07410089
113	0xbcc7049d	-0.024294192
114	0x3a3fbd2f	0.00073142623
115	0xbc7ad730	-0.015310094
116	0x3c3cbc08	0.0115194395
117	0xb48328bb	-2.4430287e-07
118	0xb4abf834	-3.2031824e-07
119	0x322bd410	1.00017274e-08
120	0xb43d26ef	-1.761616e-07
121	0xb4b184b8	-3.3065385e-07
122	0x34ad1196	3.2236557e-07
123	0x34e8ce6b	4.3363556e-07
124	0x34fafbd5	4.674936e-07
125	0x354a98c7	7.5473184e-07
126	0x3acc37fc	0.001558065
127	0xbbcd603a	-0.0062675746
128	0xbca0e65a	-0.01964109
129	0xbc4cc10f	-0.012497201
130	0x3d1df90a	0.03856758
131	0xbc13f19a	-0.00902977
132	0xbcb39ad2	-0.02192441
133	0x3c8cbc3f	0.017179606
134	0xbce63ff7	-0.028106673
135	0x3c4482e7	0.0119941
136	0x3c13349f	0.008984714
137	0x3cb4b386	0.02205826
138	0x3b5bdf4d	0.0033549846
139	0xbd044dc5	-0.03230073
140	0xbad6dab5	-0.0016392084
141	0x3b7a8df7	0.003823159
142	0x3adf0833	0.0017015993
143	0x3bffaf52	0.007802882
144	0x3a8d6ae3	0.0010789301
145	0x3c3fdfb2	0.011711048
146	0xbc542d01	-0.012950183
147	0xbbd8f2d4	-0.0066207442
148	0xbbdfd7e4	-0.006831156
149	0x3bb279b6	0.005446638
150	0x3afb5370	0.0019174647
151	0x3d0cc483	0.034367096
152	0x3cd904b0	0.026491493
153	0x3b83137f	0.004000127
154	0x3abe4a46	0.0014517985
155	0xbb85e5cd	-0.0040862323
156	0x3b7621e5	0.0037556824
157	0xbbe748d3	-0.007058242
158	0xba17ec0e	-0.0005795368
159	0x3bf4c09b	0.0074692494
160	0x3b101696	0.0021986119
161	0x3c131c88	0.00897897
162	0x3bf6cfee	0.0075321114
163	0xbbba380f	-0.0056829522
164	0xbc2c2b0e	-0.010508312
165	0xbb81b4bf	-0.003958314
166	0xbcf3d885	-0.02976633
167	0xb8414b72	-4.608505e-05
168	0x3b8e2532	0.00433793
169	0xb8f5a172	-0.00011712582
170	0x3b0d5ef3	0.0021571487
171	0x3bcb750a	0.0062090205
172	0x3bb94fc9	0.005655263
173	0x3cff04dd	0.031130249
174	0x3ceffc03	0.029294973
175	0xbd4706f2	-0.048590608
176	0xbbb2ab77	-0.005452569
177	0xbbafc25d	-0.005363746
178	0xbd164e12	-0.036695547
179	0xbba8aba0	-0.0051474124
180	0xbca7d4fc	-0.020487301
181	0xbd20df6b	-0.039275568
182	0x3bbd1532	0.005770349
183	0xbcc0e967	-0.023548795
184	0x3b2680b9	0.0025406315
185	0xbb8beefc	-0.0042704325
186	0xbcae187c	-0.02125191
187	0xbbd2282e	-0.006413481
188	0xbcbb01f4	-0.02282808
189	0x3c0154dc	0.007893767
190	0x3d5706ee	0.052496843
191	0x3cb833a4	0.022485562
192	0xbc89dd52	-0.016829167
193	0xbb23fc9a	-0.0025022388
194	0x3c91d9ab	0.017803987
195	0xbcade033	-0.02122507
196	0xbb2f0966	-0.0026708483
197	0x3c525ede	0.012840001
198	0xbb94d8cf	-0.004542447
199	0xba06f6ac	-0.00051484513
200	0xbcd0c3a6	-0.025483917
201	0xbcbb36ad	-0.02285322
202	0x3c2b67db	0.010461773
203	0xbcb2fe62	-0.021849815
204	0xbc4b548c	-0.012410294
205	0xbc551d4c	-0.013007473
206	0xbcf37322	-0.029717986
207	0x3d156e47	0.03648212
208	0x3c5e8071	0.0135804275
209	0x3d03043d	0.031986464
210	0x3c1f1a91	0.009710924
211	0xbcd0b095	-0.025474826
212	0x3c116a75	0.008875479
213	0x3ca08b04	0.019597538
214	0x3c971b1c	0.018445544
215	0x3be4e0be	0.006984799
216	0x3c3f9422	0.011693032
217	0xbc90d180	-0.017678022
218	0xbd0f88c8	-0.035042554
219	0x3d2c6b3a	0.042094447
220	0xbe45c21e	-0.19312331
221	0xbca6197c	-0.020275824
222	0xbc3e0640	-0.01159817
223	0x3cb2c908	0.021824375
224	0x3c612dfd	0.013743875
225	0xbca59b57	-0.020215673
226	0x3ca7dee3	0.020492023
227	0xbd047419	-0.03233728
228	0xbb24cd10	-0.002514664
229	0x3c61a3b4	0.01377194
230	0xbc587acb	-0.01321287
231	0x3cbd8b70	0.023137778
232	0xbc962190	-0.01832655
233	0xbb094b52	-0.0020949435
234	0xba0fd044	-0.0005486051
235	0x3c8b452a	0.017000753
236	0x3cef4118	0.029205844
237	0xbca6c360	-0.020356834
238	0xbd69d54b	-0.057088178
239	0x3c8a6c02	0.016897205
240	0x3b0cb408	0.0021469612
241	0x3ca5681d	0.020191247
242	0x3b1d1ab5	0.0023972217
243	0x3c8c7b14	0.017148532
244	0xbb5aa922	-0.0033364971
245	0xbaf13cee	-0.0018404999
246	0xb9cf1848	-0.00039500208
247	0xbd1b05dd	-0.03784739
248	0xbb606e8d	-0.003424558
249	0x3c944dce	0.018103506
250	0x3c9d3a9a	0.019192982
251	0x3cbaf5ef	0.022822348
252	0xbc716131	-0.014732645
253	0x3c94f2af	0.018182127
254	0xbba62b0c	-0.0050710496
255	0xbcf0f2df	-0.029412685

27 f4 [64]
0	0x3ebcbc7e	0.36862558
1	0x3ea69bb3	0.32540664
2	0x3e26d99d	0.1629395
3	0x3eb85be5	0.3600761
4	0x3f26c690	0.6514673
5	0x3ee8f238	0.45497298
6	0x3eafeb08	0.34359002
7	0x3e14ff00	0.145504
8	0x3f0b6b2a	0.54460394
9	0x3ea2c460	0.31790447
10	0x3ddeb6c2	0.10874702
11	0x3f52329e	0.82108486
12	0x3e335e2e	0.17516395
13	0x3eb5e43e	0.35525697
14	0x3eb4cd60	0.3531294
15	0x3ebfa3ff	0.37429807
16	0x3f28037b	0.6563031
17	0x3cd486d8	0.025943205
18	0x3f51e4b0	0.81989574
19	0x3e9bf89e	0.30463117
20	0x3ef4fd04	0.47849286
21	0x3f2d5db8	0.6772113
22	0x3f4b4234	0.7939789
23	0x3ecf9912	0.4054647
24	0x3de5d884	0.11222938
25	0x3e0a8aea	0.13529554
26	0xbdcd32f2	-0.10019483
27	0x3f338753	0.70128363
28	0xba21f100	-0.00061775744
29	0xbe794294	-0.24341804
30	0xbd9bdc30	-0.07610357
31	0x3f63467e	0.8877944
32	0x3f0a7c38	0.5409579
33	0x3f8ae52b	1.0851187
34	0x3f5fdf44	0.8745005
35	0x3f0c1bc6	0.5472988
36	0x3eff1614	0.49821532
37	0x3e014b75	0.12626441
38	0x3f89861f	1.0744056
39	0x3f5a54a8	0.85285425
40	0x3e484dec	0.19560975
41	0x3f186a97	0.59537643
42	0xbe30a824	-0.1725164
43	0xbf1115a7	-0.56673664
44	0x3eaeac8b	0.34116015
45	0x3f03e589	0.5152212
46	0x3f8d153d	1.1022106
47	0x3f5d9799	0.86559445
48	0x3f5c178a	0.8597342
49	0x3f7ff616	0.9998487
50	0x3f2d7cc4	0.677685
51	0x3f82f957	1.0232342
52	0x3ec533ba	0.38516027
53	0x3f44d770	0.7689123
54	0x3f7b6230	0.981967
55	0xbf2251c0	-0.6340599
56	0x3f1d97fc	0.61560035
57	0x3e37b5b2	0.17940405
58	0x3f0c36f8	0.54771376
59	0x3dd610e8	0.10452443
60	0x3eba35d8	0.36369205
61	0x3f3d53f2	0.73956215
62	0xbf51d3de	-0.8196391
63	0x3f03364c	0.51254725
