docs/onnx_files/vgg16_conv1.onnx (onnx, 7491 bytes, 2 tensors)

features.0.weight f4 [64, 3, 3, 3]
0	0xbf0dc14a	-0.5537306
1	0x3e12212e	0.1427047
2	0x3f076a05	0.5289615
3	0xbf15479e	-0.58312404
4	0x3eb68dea	0.35655147
5	0x3f440271	0.76566225
6	0xbf30b255	-0.69022113
7	0xbd44af6b	-0.048018854
8	0x3ef7dad9	0.48409155
9	0x3e33b20e	0.17548391
10	0x3c21984b	0.00986297
11	0xbda6bbf0	-0.08141315
12	0x3d349696	0.044088922
13	0xbd900540	-0.07032251
14	0xbe854cb2	-0.26035076
15	0x3e0791b4	0.13239175
16	0xbe30eede	-0.1727862
17	0xbe077008	-0.1322633
18	0x3ea044e5	0.31302562
19	0xbe29e534	-0.1659134
20	0xbedae43d	-0.42752257
21	0x3ef34bad	0.47518674
22	0xbda952b3	-0.08267727
23	0xbef957f4	-0.48699915
24	0x3f21cc68	0.63202524
25	0x3c9e2aeb	0.019307574
26	0xbe8e1874	-0.2775303
27	0x3e6e1e3c	0.23253721
28	0x3e01b31e	0.12665984
29	0x3e3e8519	0.1860546
30	0xbedb29c8	-0.42805314
31	0xbe795454	-0.24348575
32	0x3e7c31fd	0.24628444
33	0xbe8056b8	-0.2506616
34	0x3e112c2a	0.14177004
35	0xbbb3c748	-0.0054864027
36	0xbe1023f5	-0.14076217
37	0xbe60483b	-0.21902554
38	0x3e1a0438	0.15040672
39	0xbf575d42	-0.84126675
40	0xbeb41963	-0.3517562
41	0x3f1060c0	0.5639763
42	0xbe77c04e	-0.24194452
43	0x3f04ef42	0.5192758
44	0x3f0a05ba	0.5391499
45	0xbea0ef12	-0.31432396
46	0xbebdaf46	-0.37047786
47	0xbe06143f	-0.13093661
48	0xbef160d3	-0.47144184
49	0xbe1ec14d	-0.15503426
50	0x3eb1187b	0.3458899
51	0x3d5ec1ae	0.054383926
52	0x3f163a57	0.5868277
53	0x3efdd966	0.49579924
54	0x3e3566eb	0.17715041
55	0x3f058067	0.5214905
56	0x3c21c681	0.009873987
57	0xbe8b2f97	-0.27184746
58	0xbf379320	-0.7170887
59	0x3ea0378a	0.31292373
60	0xbd9b242e	-0.0757526
61	0xbe621661	-0.2207885
62	0x3eab4a77	0.3345525
63	0x3e9e549d	0.3092393
64	0x3f2bb39f	0.67070955
65	0x3ca84f7b	0.020545712
66	0xbeeea13e	-0.46607393
67	0xbf88eba4	-1.0696912
68	0x3eab86ed	0.33501378
69	0xbda46c0f	-0.08028423
70	0xbe9c4651	-0.30522397
71	0x3f0b6b31	0.54460436
72	0x3ea1a619	0.31572035
73	0x3ed8c0c3	0.42334566
74	0xbeb31415	-0.3497626
75	0x3db0da29	0.08635361
76	0xbeeddc0f	-0.46456954
77	0x3c4160d7	0.011802874
78	0x3dd6af48	0.10482651
79	0xbe1555fa	-0.14583579
80	0xbc812561	-0.015764894
81	0x3d8965e6	0.06708889
82	0x3e453365	0.19257887
83	0x3e3cbafd	0.18430705
84	0x3d54df0e	0.051970534
85	0x3e805642	0.2506581
86	0x3e4e794f	0.20163463
87	0xbd638009	-0.055542026
88	0x3d0ae137	0.033906188
89	0xbd0f2c10	-0.03495413
90	0xbe372e1e	-0.17888686
91	0xbdb673b4	-0.08908787
92	0x3d3fcac3	0.046824228
93	0xbe839b87	-0.25704595
94	0xbd52ba83	-0.051447403
95	0x3d992ad5	0.07478873
96	0xbe3db238	-0.18525016
97	0xbdf1e6e7	-0.11811619
98	0xbdd54054	-0.1041266
99	0xbd8af22d	-0.067844726
100	0x3df2eb8e	0.11861335
101	0x3e47081a	0.19436684
102	0xbdf6780b	-0.12034615
103	0x3e0e21f1	0.13880135
104	0x3e8b53b0	0.27212286
105	0xbe08ee3c	-0.13372129
106	0x3c8457ed	0.016155208
107	0x3dbdb33a	0.092627004
108	0x3ea01f14	0.3127371
109	0x3f0f7526	0.5603813
110	0xbe03c43b	-0.12867825
111	0x3ba7c974	0.0051204506
112	0xbcf1a6db	-0.029498508
113	0xbd24548c	-0.040119693
114	0xbe36427b	-0.17798798
115	0xbeb3641c	-0.35037315
116	0xbe36e725	-0.17861612
117	0x3f38af3d	0.7214239
118	0x3f8964c6	1.0733879
119	0x3d6540da	0.05597005
120	0xbd297a11	-0.041376177
121	0xbde7cd28	-0.11318427
122	0xbe572ec3	-0.21013932
123	0xbed9610e	-0.4245686
124	0xbf2c5df2	-0.6733085
125	0xbec5f9c9	-0.38667133
126	0x3ebca414	0.36843932
127	0x3f288d53	0.65840644
128	0x3c86c992	0.016453538
129	0xbbb06b86	-0.0053839115
130	0x3cc03568	0.023462966
131	0xbc00ffda	-0.0078735
132	0xbe9dcf26	-0.30822104
133	0xbee7e6b7	-0.4529321
134	0xbe85b1bb	-0.2611216
135	0xbdc4fad8	-0.09618157
136	0xbdbd755a	-0.09250899
137	0xbdf03f59	-0.117308326
138	0xbc017410	-0.007901207
139	0x3d5c1ef6	0.053740464
140	0xbc9099f8	-0.017651543
141	0x3ddc1670	0.10746467
142	0x3e44c869	0.19217075
143	0x3d582d04	0.052777305
144	0xbe6bb0cc	-0.23016661
145	0xbe5c2654	-0.21498996
146	0xbe39e9f8	-0.18155658
147	0xbdff2d5b	-0.12459823
148	0xbc6298b6	-0.013830354
149	0xbd4883ef	-0.048953947
150	0xbbcc6ac7	-0.006238315
151	0x3e1704d4	0.14747936
152	0x3d5969a8	0.053079277
153	0xbd15fbe7	-0.036617186
154	0xbb798129	-0.003807137
155	0xbccb4ded	-0.024817431
156	0x3d7eb79f	0.062186833
157	0x3e4d4bc6	0.20048437
158	0x3df07558	0.117411315
159	0x3dfef01b	0.1244814
160	0x3e94b6fe	0.29045862
161	0x3de49ea9	0.111630745
162	0xbed1686d	-0.40899983
163	0xbe1b2108	-0.15149319
164	0x3eddb2d7	0.43300506
165	0xbefae4aa	-0.49002582
166	0xbe1b0655	-0.15139134
167	0x3f313eff	0.6923675
168	0xbe624756	-0.22097525
169	0xbd962028	-0.07330352
170	0x3ec7de86	0.3903696
171	0xbef276d2	-0.47356278
172	0xbe313209	-0.17304243
173	0x3f223379	0.6335979
174	0xbf28e548	-0.65974855
175	0xbe5468dd	-0.20743127
176	0x3f6678fe	0.9002837
177	0xbe981012	-0.2969976
178	0xbe1ca6f5	-0.15298064
179	0x3ec63f3a	0.38720113
180	0xbdfbcc31	-0.12294806
181	0x3c12830e	0.008942379
182	0x3e8c30b9	0.27380922
183	0xbe9a7e87	-0.30174658
184	0xbd9648bc	-0.07338092
185	0x3edcb4e0	0.43106747
186	0xbdf9ed1a	-0.12203427
187	0xbe0ea987	-0.13931857
188	0x3d5e3cb9	0.05425713
189	0xbd78310b	-0.060593646
190	0x3dace2c3	0.08441689
191	0xb9e763ef	-0.0004413421
192	0x3dee1c67	0.11626511
193	0x3e88795f	0.266551
194	0x3e2247b2	0.15847662
195	0x3d98df30	0.07464445
196	0x3e1f0d30	0.15532374
197	0x3dee077b	0.116225205
198	0xbd9c1d57	-0.07622784
199	0x3db9ad26	0.090662286
200	0x3b84e9cb	0.0040561906
201	0x3d7f85aa	0.06238333
202	0x3e3e6b65	0.18595655
203	0x3ddbae89	0.10726649
204	0xbd32052b	-0.04346196
205	0x3cb67268	0.02227135
206	0x3c4f6d9d	0.012660411
207	0xbe1a8872	-0.15091112
208	0xbcbe4bd5	-0.023229519
209	0xbdc5782c	-0.096420616
210	0xbd155737	-0.036460128
211	0x3d810c2e	0.06301151
212	0x39a962b9	0.00032307746
213	0xbd930bf7	-0.071800165
214	0xbcc5df89	-0.024154441
215	0xbc7b12bf	-0.015324294
216	0xbea1055e	-0.31449407
217	0xbeb8b41c	-0.36074913
218	0xbda1a7fa	-0.07893367
219	0xbe088b07	-0.13334285
220	0x3eca3ada	0.39498025
221	0x3eb0ad6f	0.3450732
222	0x3db27f53	0.087156914
223	0x3ed4fe82	0.41600424
224	0x3ebfa8e3	0.37433538
225	0x3c1990a2	0.009372862
226	0xbea4afbf	-0.32165334
227	0xbd26a3f8	-0.040683717
228	0xbe93f4d2	-0.2889772
229	0xbcfc3021	-0.030784668
230	0xbe03ee69	-0.12883915
231	0xbe95fea9	-0.29295853
232	0xbe2985f6	-0.16555008
233	0xbe87e670	-0.26542997
234	0x3ed3bc61	0.4135466
235	0x3e237693	0.15963201
236	0x3d632484	0.055454746
237	0x3e389c10	0.18028283
238	0x3ea44d2b	0.32090124
239	0xbd10d6a6	-0.035360955
240	0x3b42463c	0.0029643914
241	0x3b5a7a1e	0.0033336948
242	0xbe870b67	-0.26375887
243	0xbe5c6405	-0.2152253
244	0xbedec852	-0.43512207
245	0xbe82689c	-0.25470436
246	0x3db44d32	0.08803786
247	0x3e3c53c0	0.18391323
248	0x3dc625ef	0.09675204
249	0x3e252adb	0.1612963
250	0x3ea70a4c	0.32625043
251	0x3d87a112	0.066225186
252	0xbeb7808d	-0.35840264
253	0xbf02eee9	-0.511458
254	0xbe9cee9d	-0.30650797
255	0x3d474b3b	0.04865573

features.0.bias f4 [64]
0	0x3ece88df	0.403388
1	0x3ec16e3f	0.37779424
2	0x3eedc0cd	0.46436158
3	0xbea54148	-0.32276368
4	0x3ec9b48e	0.39395565
5	0xbeca67d8	-0.39532351
6	0x3eca4a29	0.39509705
7	0xbf0cb08f	-0.5495691
8	0x3e89dfed	0.26928654
9	0xbf429dbc	-0.76021934
10	0xbeb3995d	-0.35077944
11	0x3e6f09e1	0.23343612
12	0xbfa97708	-1.323945
13	0xbe2d6a40	-0.16935062
14	0x3ec99ee1	0.39379027
15	0xbdd21326	-0.102575585
16	0x3d3c8d01	0.04603291
17	0xbf33128e	-0.6995019
18	0x3e1eaab2	0.15494803
19	0x3f101425	0.5628074
20	0x3e9a2ecb	0.30113825
21	0x3eaf6003	0.3425294
22	0x3ddbd162	0.10733296
23	0x3eee1b68	0.46505284
24	0x3e0495c1	0.12947752
25	0x3da16fee	0.07882677
26	0xbd497d57	-0.0491918
27	0xbf105385	-0.5637744
28	0x3e160695	0.14650948
29	0xbec7316a	-0.38904887
30	0xbd9256d6	-0.07145469
31	0x3d84df9b	0.06487962
32	0x3e8dbc0c	0.2768253
33	0x3ea7e8b9	0.3279474
34	0x3f1177fa	0.56823695
35	0xbfa1cb7b	-1.2640222
36	0xbf563911	-0.83680826
37	0xbf72d0db	-0.9484994
38	0x3e0b079b	0.1357712
39	0x3e8b9c20	0.2726755
40	0x3e3c7f24	0.18407875
41	0xbf085499	-0.53254086
42	0x3eb3947d	0.35074225
43	0xbda955c3	-0.08268311
44	0xbf832d81	-1.0248262
45	0xbf30f06e	-0.69116867
46	0xbf45673c	-0.7711065
47	0x3e85bf86	0.26122683
48	0x3ece8121	0.40332893
49	0xbef5db1d	-0.48018733
50	0xbe9cf641	-0.30656627
51	0x3f14ab78	0.5807414
52	0xbfaa90f5	-1.3325487
53	0x3ef8014f	0.48438498
54	0xbf50e710	-0.81602573
55	0x3e745067	0.23858796
56	0x3e6b806c	0.22998208
57	0x3efeec6a	0.49789745
58	0x3f0e2899	0.555307
59	0x3f05e4f3	0.52302474
60	0xbe5f640e	-0.21815512
61	0x3c3fb66d	0.011701209
62	0xbf0d35de	-0.5516032
63	0x3e57e485	0.21083267
