docs/onnx_files/vgg16_conv3.onnx (onnx, 451207 bytes, 6 tensors)

features.0.weight f4 [64, 3, 3, 3]
00000000: 4ac1 0dbf 2e21 123e 056a 073f 9e47 15bf
00000010: ea8d b63e 7102 443f 55b2 30bf 6baf 44bd
00000020: d9da f73e 0eb2 333e 4b98 213c f0bb a6bd
00000030: 9696 343d 4005 90bd b24c 85be b491 073e
00000040: deee 30be 0870 07be e544 a03e 34e5 29be
00000050: 3de4 dabe ad4b f33e b352 a9bd f457 f9be
00000060: 68cc 213f eb2a 9e3c 7418 8ebe 3c1e 6e3e
00000070: 1eb3 013e 1985 3e3e c829 dbbe 5454 79be
00000080: fd31 7c3e b856 80be 2a2c 113e 48c7 b3bb
00000090: f523 10be 3b48 60be 3804 1a3e 425d 57bf
000000a0: 6319 b4be c060 103f 4ec0 77be 42ef 043f
000000b0: ba05 0a3f 12ef a0be 46af bdbe 3f14 06be
000000c0: d360 f1be 4dc1 1ebe 7b18 b13e aec1 5e3d
000000d0: 573a 163f 66d9 fd3e eb66 353e 6780 053f
000000e0: 81c6 213c 972f 8bbe 2093 37bf 8a37 a03e
000000f0: 2e24 9bbd 6116 62be 774a ab3e 9d54 9e3e
00000100: 9fb3 2b3f 7b4f a83c 3ea1 eebe a4eb 88bf
00000110: ed86 ab3e 0f6c a4bd 5146 9cbe 316b 0b3f
00000120: 19a6 a13e c3c0 d83e 1514 b3be 29da b03d
00000130: 0fdc edbe d760 413c 48af d63d fa55 15be
00000140: 6125 81bc e665 893d 6533 453e fdba 3c3e
00000150: 0edf 543d 4256 803e 4f79 4e3e 0980 63bd
00000160: 37e1 0a3d 102c 0fbd 1e2e 37be b473 b6bd
00000170: c3ca 3f3d 879b 83be 83ba 52bd d52a 993d
00000180: 38b2 3dbe e7e6 f1bd 5440 d5bd 2df2 8abd
00000190: 8eeb f23d 1a08 473e 0b78 f6bd f121 0e3e
000001a0: b053 8b3e 3cee 08be ed57 843c 3ab3 bd3d
000001b0: 141f a03e 2675 0f3f 3bc4 03be 74c9 a73b
000001c0: dba6 f1bc 8c54 24bd 7b42 36be 1c64 b3be
000001d0: 25e7 36be 3daf 383f c664 893f da40 653d
000001e0: 117a 29bd 28cd e7bd c32e 57be 0e61 d9be
000001f0: f25d 2cbf c9f9 c5be 14a4 bc3e 538d 283f
00000200: 92c9 863c 866b b0bb 6835 c03c daff 00bc
00000210: 26cf 9dbe b7e6 e7be bbb1 85be d8fa c4bd
00000220: 5a75 bdbd 593f f0bd 1074 01bc f61e 5c3d
00000230: f899 90bc 7016 dc3d 69c8 443e 042d 583d
00000240: ccb0 6bbe 5426 5cbe f8e9 39be 5b2d ffbd
00000250: b698 62bc ef83 48bd c76a ccbb d404 173e
00000260: a869 593d e7fb 15bd 2981 79bb ed4d cbbc
00000270: 9fb7 7e3d c64b 4d3e 5875 f03d 1bf0 fe3d
00000280: feb6 943e a99e e43d 6d68 d1be 0821 1bbe
00000290: d7b2 dd3e aae4 fabe 5506 1bbe ff3e 313f
000002a0: 5647 62be 2820 96bd 86de c73e d276 f2be
000002b0: 0932 31be 7933 223f 48e5 28bf dd68 54be
000002c0: fe78 663f 1210 98be f5a6 1cbe 3a3f c63e
000002d0: 31cc fbbd 0e83 123c b930 8c3e 877e 9abe
000002e0: bc48 96bd e0b4 dc3e 1aed f9bd 87a9 0ebe
000002f0: b93c 5e3d 0b31 78bd c3e2 ac3d ef63 e7b9
00000300: 671c ee3d 5f79 883e b247 223e 30df 983d
00000310: 300d 1f3e 7b07 ee3d 571d 9cbd 26ad b93d
00000320: cbe9 843b aa85 7f3d 656b 3e3e 89ae db3d
00000330: 2b05 32bd 6872 b63c 9d6d 4f3c 7288 1abe
00000340: d54b bebc 2c78 c5bd 3757 15bd 2e0c 813d
00000350: b962 a939 f70b 93bd 89df c5bc bf12 7bbc
00000360: 5e05 a1be 1cb4 b8be faa7 a1bd 078b 08be
00000370: da3a ca3e 6fad b03e 537f b23d 82fe d43e
00000380: e3a8 bf3e a290 193c bfaf a4be f8a3 26bd
00000390: d2f4 93be 2130 fcbc 69ee 03be a9fe 95be
000003a0: f685 29be 70e6 87be 61bc d33e 9376 233e
000003b0: 8424 633d 109c 383e 2b4d a43e a6d6 10bd
000003c0: 3c46 423b 1e7a 5a3b 670b 87be 0564 5cbe
000003d0: 52c8 debe 9c68 82be 324d b43d c053 3c3e
000003e0: ef25 c63d db2a 253e 4c0a a73e 12a1 873d
000003f0: 8d80 b7be e9ee 02bf 9dee 9cbe 3b4b 473d
-0.5537306 0.1427047 0.5289615 -0.58312404 0.35655147 0.76566225 -0.69022113 -0.048018854
0.48409155 0.17548391 0.00986297 -0.08141315 0.044088922 -0.07032251 -0.26035076 0.13239175
-0.1727862 -0.1322633 0.31302562 -0.1659134 -0.42752257 0.47518674 -0.08267727 -0.48699915
0.63202524 0.019307574 -0.2775303 0.23253721 0.12665984 0.1860546 -0.42805314 -0.24348575
0.24628444 -0.2506616 0.14177004 -0.0054864027 -0.14076217 -0.21902554 0.15040672 -0.84126675
-0.3517562 0.5639763 -0.24194452 0.5192758 0.5391499 -0.31432396 -0.37047786 -0.13093661
-0.47144184 -0.15503426 0.3458899 0.054383926 0.5868277 0.49579924 0.17715041 0.5214905
0.009873987 -0.27184746 -0.7170887 0.31292373 -0.0757526 -0.2207885 0.3345525 0.3092393
0.67070955 0.020545712 -0.46607393 -1.0696912 0.33501378 -0.08028423 -0.30522397 0.54460436
0.31572035 0.42334566 -0.3497626 0.08635361 -0.46456954 0.011802874 0.10482651 -0.14583579
-0.015764894 0.06708889 0.19257887 0.18430705 0.051970534 0.2506581 0.20163463 -0.055542026
0.033906188 -0.03495413 -0.17888686 -0.08908787 0.046824228 -0.25704595 -0.051447403 0.07478873
-0.18525016 -0.11811619 -0.1041266 -0.067844726 0.11861335 0.19436684 -0.12034615 0.13880135
0.27212286 -0.13372129 0.016155208 0.092627004 0.3127371 0.5603813 -0.12867825 0.0051204506
-0.029498508 -0.040119693 -0.17798798 -0.35037315 -0.17861612 0.7214239 1.0733879 0.05597005
-0.041376177 -0.11318427 -0.21013932 -0.4245686 -0.6733085 -0.38667133 0.36843932 0.65840644
0.016453538 -0.0053839115 0.023462966 -0.0078735 -0.30822104 -0.4529321 -0.2611216 -0.09618157
-0.09250899 -0.117308326 -0.007901207 0.053740464 -0.017651543 0.10746467 0.19217075 0.052777305
-0.23016661 -0.21498996 -0.18155658 -0.12459823 -0.013830354 -0.048953947 -0.006238315 0.14747936
0.053079277 -0.036617186 -0.003807137 -0.024817431 0.062186833 0.20048437 0.117411315 0.1244814
0.29045862 0.111630745 -0.40899983 -0.15149319 0.43300506 -0.49002582 -0.15139134 0.6923675
-0.22097525 -0.07330352 0.3903696 -0.47356278 -0.17304243 0.6335979 -0.65974855 -0.20743127
0.9002837 -0.2969976 -0.15298064 0.38720113 -0.12294806 0.008942379 0.27380922 -0.30174658
-0.07338092 0.43106747 -0.12203427 -0.13931857 0.05425713 -0.060593646 0.08441689 -0.0004413421
0.11626511 0.266551 0.15847662 0.07464445 0.15532374 0.116225205 -0.07622784 0.090662286
0.0040561906 0.06238333 0.18595655 0.10726649 -0.04346196 0.02227135 0.012660411 -0.15091112
-0.023229519 -0.096420616 -0.036460128 0.06301151 0.00032307746 -0.071800165 -0.024154441 -0.015324294
-0.31449407 -0.36074913 -0.07893367 -0.13334285 0.39498025 0.3450732 0.087156914 0.41600424
0.37433538 0.009372862 -0.32165334 -0.040683717 -0.2889772 -0.030784668 -0.12883915 -0.29295853
-0.16555008 -0.26542997 0.4135466 0.15963201 0.055454746 0.18028283 0.32090124 -0.035360955
0.0029643914 0.0033336948 -0.26375887 -0.2152253 -0.43512207 -0.25470436 0.08803786 0.18391323
0.09675204 0.1612963 0.32625043 0.066225186 -0.35840264 -0.511458 -0.30650797 0.04865573

features.0.bias f4 [64]
00000000: df88 ce3e 3f6e c13e cdc0 ed3e 4841 a5be
00000010: 8eb4 c93e d867 cabe 294a ca3e 8fb0 0cbf
00000020: eddf 893e bc9d 42bf 5d99 b3be e109 6f3e
00000030: 0877 a9bf 406a 2dbe e19e c93e 2613 d2bd
00000040: 018d 3c3d 8e12 33bf b2aa 1e3e 2514 103f
00000050: cb2e 9a3e 0360 af3e 62d1 db3d 681b ee3e
00000060: c195 043e ee6f a13d 577d 49bd 8553 10bf
00000070: 9506 163e 6a31 c7be d656 92bd 9bdf 843d
00000080: 0cbc 8d3e b9e8 a73e fa77 113f 7bcb a1bf
00000090: 1139 56bf dbd0 72bf 9b07 0b3e 209c 8b3e
000000a0: 247f 3c3e 9954 08bf 7d94 b33e c355 a9bd
000000b0: 812d 83bf 6ef0 30bf 3c67 45bf 86bf 853e
000000c0: 2181 ce3e 1ddb f5be 41f6 9cbe 78ab 143f
000000d0: f590 aabf 4f01 f83e 10e7 50bf 6750 743e
000000e0: 6c80 6b3e 6aec fe3e 9928 0e3f f3e4 053f
000000f0: 0e64 5fbe 6db6 3f3c de35 0dbf 85e4 573e
0.403388 0.37779424 0.46436158 -0.32276368 0.39395565 -0.39532351 0.39509705 -0.5495691
0.26928654 -0.76021934 -0.35077944 0.23343612 -1.323945 -0.16935062 0.39379027 -0.102575585
0.04603291 -0.6995019 0.15494803 0.5628074 0.30113825 0.3425294 0.10733296 0.46505284
0.12947752 0.07882677 -0.0491918 -0.5637744 0.14650948 -0.38904887 -0.07145469 0.06487962
0.2768253 0.3279474 0.56823695 -1.2640222 -0.83680826 -0.9484994 0.1357712 0.2726755
0.18407875 -0.53254086 0.35074225 -0.08268311 -1.0248262 -0.69116867 -0.7711065 0.26122683
0.40332893 -0.48018733 -0.30656627 0.5807414 -1.3325487 0.48438498 -0.81602573 0.23858796
0.22998208 0.49789745 0.555307 0.52302474 -0.21815512 0.011701209 -0.5516032 0.21083267

features.2.weight f4 [64, 64, 3, 3]
00000000: 80b9 fabc cec4 c9bd 97c7 07be a980 df3b
00000010: 16f9 aabd eaf8 2abe ff12 fe3c 9fc3 86bd
00000020: 23df 06be 872d 423d aeff e1bc e26a 51bd
00000030: a69f 8f3d e336 073c fa3c 96bc 3931 8f3d
00000040: f8b6 1f3d c1ef 843c 04cb 903d 29b2 ac3b
00000050: 4cfe 41bd 680b ac3d 857b 493d 5ded d7ba
00000060: 6289 0b3c 6d17 b73c 25b8 c13b e942 a83d
00000070: e38c 5c3d ef80 b3ba c3e5 6f3d c527 dc3d
00000080: d484 153d 9397 b6bb ab04 483d 7a48 293d
00000090: 0120 053e d6e9 bb3c 769a 2abd ab8d 533b
000000a0: 7852 963c 59b9 fbbc 47bb ef3c 8e2d 8abb
000000b0: a947 963c 16e1 6cbc 2fb5 983c 6456 513d
000000c0: 1f79 98bc 00ea b1bb d486 61bc e0da a4bb
000000d0: 809a 2a3c 1ad8 9ebb c034 2b3e 32ad d63c
000000e0: 4f11 cc3b 48a6 013e ed42 cd3d 0f4b 653d
000000f0: 3a70 043d e4e5 7d3d 7632 34bc 0296 2fbb
00000100: ee60 cf3c f040 c43c bd76 2ebc c14b d2bb
00000110: 2b8f a1bc 1fe4 06bd 62e5 6ebc bd71 7fbc
00000120: 6f0a 9f3c dec8 093d ccaa a83c 5253 66bc
00000130: 7438 bdbc a7ac d1bb c509 863b 0d2e 34bd
00000140: 8cc2 16bc b205 813d a6b9 773d 7655 ed3c
00000150: 6a2e d43c 8efd b63c 2f83 aa3c 1521 fa3c
00000160: cafa 373c ebb4 8bbb 1933 2cbd a541 babd
00000170: 5bc2 57bd e19a 52bd c51b 8cbd edff 6cbd
00000180: 7ef0 21bd 1bd5 77bd 7427 8ebd d11d 18bc
00000190: 2038 83bc f889 4ebb a89d 353c 4c1d 06bd
000001a0: 11fa 12bd f59d c23c a56e 5bbc b3d9 51bc
000001b0: b8ae 86bc 473c 17bd d4df 1abc de2a 93bc
000001c0: d879 4bbc 4e1e 1ebd a146 1abc a047 9dbb
000001d0: dfe7 6abc df2c 0f3a 87a6 0b3d f2eb 9b3d
000001e0: 9d17 9bbc 77ff 93bb 43c1 9b3c e34c babc
000001f0: a77d 593a c99f 193c 7aaf b63d 9bff ea3d
00000200: ae65 063d ebc6 06bd 77b2 9cbc 5edc 3ebc
00000210: 692a 3abc 861d 2abd 3833 2bbc 6783 603c
00000220: fa24 ba3b 67c3 183d 5c31 dc3b 8b6b bcbb
00000230: 6907 603c cf37 c9bb 4a07 973b feb6 79bb
00000240: 1ad5 003c 54ab 85bc d501 e9bc f7b6 ba3c
00000250: e51e a1bc 6b32 57bd 3d39 d83c 7c2d b2bc
00000260: 4f59 32bd 4903 073d fb25 31bd 591a 2dbd
00000270: 56e0 e83c 5202 51bc df7e cabc 94c1 50bc
00000280: 36d5 013c 82b0 63bd 75c9 d0bc bd05 00bd
00000290: e23e babc c50f a73c cb54 033b 6c44 4fbb
000002a0: 552c 303c 3a3a 173c 9349 b8bb 2e50 40bc
000002b0: def1 a2bd 72ea 6f39 95a3 61bc 2631 9cbd
000002c0: 379e 03be 5a4d 853d dffb bbbc 5cde cabd
000002d0: b412 e03d 7023 583d 8ea1 0cbd aace 5f3d
000002e0: b417 8b3d 372e d63c e4e3 003c 7b29 1b3d
000002f0: 8278 1d3c 8554 093e 7f9c 763d 2d7d 433b
00000300: a254 9c3c 4488 113d 7623 5c3b 1641 343d
00000310: b8d1 e03c c491 cdbc 2500 9a3c 2c03 493d
00000320: 4429 473d 3786 aebb 9e30 933c 9ee2 283d
00000330: 3d78 7ebc 8900 e1ba d90b 993c 1020 8ebc
00000340: d019 9dbd 1b4f f3bc 23bd 31bd 7297 aabd
00000350: 7d88 97bd 2ada 76bd 43f7 c7bd 680b 97bd
00000360: 939e b1bb 3746 1c3d 32ef 543d 87bb 21bd
00000370: 7544 023c c398 8e3d 16db 5ebd 3fb8 3ebc
00000380: c047 653d 8d68 7dbc b69c 5e3b 393a f3ba
00000390: d294 14ba 8db7 e0bb 65d1 5abc 6110 a0bc
000003a0: b3cf 15bb 7b90 053d da36 6ebc 6893 80bc
000003b0: 8867 853b 945b aebc fb89 37bc d86c a9bc
000003c0: 80f4 07bd d651 d4bc 98bf d2bc 2e6e 3bbd
000003d0: a186 9cbc f27b 28bc 4e3b 433c d2d0 913b
000003e0: 331b 823b 71dc 87bb 1d4d a2bc ebec 213a
000003f0: c089 4e3c a225 853a b6ce 633c 49b7 a8bc
-0.030606031 -0.09851991 -0.13259731 0.0068207574 -0.083482906 -0.16696516 0.031014917 -0.065802805
-0.13171057 0.0474067 -0.027587738 -0.051127322 0.070128724 0.008252832 -0.018339623 0.0699181
0.038992852 0.016227605 0.07069972 0.005270262 -0.047361657 0.08400613 0.049190063 -0.0016473938
0.008516641 0.022350037 0.0059118443 0.08215887 0.053845298 -0.0013695041 0.058568727 0.10749773
0.036503628 -0.0055722683 0.048832577 0.041328885 0.1300049 0.02293865 -0.04165121 0.0032280486
0.018349871 -0.03072803 0.029264105 -0.0042168563 0.018344717 -0.014457962 0.018641083 0.05110778
-0.018612443 -0.0054295063 -0.013765056 -0.0050309747 0.010412812 -0.0048475387 0.16719341 0.026205633
0.0062276493 0.12661088 0.10022531 0.055979785 0.03233359 0.06198682 -0.010998359 -0.0026792292
0.025314774 0.023956746 -0.010648427 -0.006417722 -0.019721588 -0.032932397 -0.014581056 -0.015591082
0.019414155 0.033638828 0.020589255 -0.014057951 -0.023098208 -0.0063987556 0.00409052 -0.04398923
-0.009201657 0.062999144 0.060479783 0.028971415 0.025901038 0.022337701 0.020814506 0.030533353
0.011229226 -0.0042635105 -0.042040918 -0.09094552 -0.052675586 -0.051417235 -0.06841234 -0.057861257
-0.03953599 -0.060505968 -0.06941119 -0.009284453 -0.016017973 -0.0031515341 0.011084951 -0.032742783
-0.035883013 0.02375696 -0.013393079 -0.012808251 -0.016440734 -0.03692272 -0.009452779 -0.017964777
-0.0124191865 -0.03860312 -0.009416253 -0.004799798 -0.014337509 0.00054617034 0.03409436 0.07613362
-0.018932158 -0.0045165378 0.019013053 -0.02274174 0.0008296617 0.009376475 0.08920188 0.11474534
0.032811813 -0.032904547 -0.019128067 -0.011649219 -0.01136265 -0.041532062 -0.010449223 0.013703204
0.0056806775 0.037295725 0.0067197513 -0.005750125 0.013673642 -0.006140686 0.004609023 -0.0038103457
0.007863307 -0.016317047 -0.028443256 0.022792323 -0.019668052 -0.052538317 0.02639448 -0.021750204
-0.043542203 0.032962117 -0.04324911 -0.042261455 0.028427284 -0.012756901 -0.0247187 -0.012741465
0.007924369 -0.055588253 -0.025486687 -0.031255472 -0.022735063 0.020393262 0.0020039554 -0.0031626476
0.010752757 0.009230191 -0.005624005 -0.011737866 -0.07956289 0.00022880154 -0.013771911 -0.07626562
-0.12853323 0.06508894 -0.02294725 -0.09905693 0.10941067 0.05276817 -0.034333758 0.05464045
0.067916304 0.026145084 0.007866833 0.037881356 0.009611251 0.13411148 0.06020784 0.002982925
0.019083325 0.035530344 0.0033590472 0.044007383 0.027443752 -0.02509392 0.018798897 0.04907529
0.04862334 -0.0053260582 0.017967518 0.041231744 -0.015531597 -0.0017166297 0.018682407 -0.017349273
-0.07670939 -0.029700806 -0.043393265 -0.08329667 -0.0739908 -0.06026665 -0.09763958 -0.073752224
-0.005420515 0.0381529 0.051985927 -0.03948548 0.007950892 0.06962731 -0.054408155 -0.011640607
0.05597663 -0.015466821 0.0033967919 -0.001855678 -0.0005667928 -0.0068578185 -0.013355588 -0.01953906
-0.0022859394 0.03260849 -0.014539445 -0.015695289 0.00407118 -0.021283902 -0.011202331 -0.020681784
-0.033192158 -0.025917929 -0.025726125 -0.045759372 -0.019107165 -0.010283457 0.011915995 0.004449942
0.0039705276 -0.0041461517 -0.019812161 0.0006176966 0.012606084 0.001015831 0.013904264 -0.02059521

features.2.bias f4 [64]
00000000: 25c8 043b 70d1 b8bd 0ccb 1d3f 626d a7bd
00000010: 6fe6 7a3e 10af 47bd b4d3 053e 9f9c edbc
00000020: d85a 12be db13 9d3e f98c 23bd 5f3c 81be
00000030: 298e cc3d da26 6ebe f795 103d 971d b9bd
00000040: af27 e93d 651f fbbc dd34 31bc c54a b0bc
00000050: 7efe 623d 6985 0d3e d026 143d 02f4 e6be
00000060: fd00 b83b 7078 c9bc 45f8 dbbe ab4e 15be
00000070: d73d c33e 22fa 12bd 7589 f23d 2b99 b4be
00000080: ce88 c3bc 7921 c0bc cf62 263f c4e7 81bd
00000090: b61b 79bc 45f3 69be 04a2 c03d 715c 01bf
000000a0: 0839 433e 686c c13d 5e67 ae3e b084 aabd
000000b0: 8009 453e 30f7 47be 3954 2cbd ad7d 24be
000000c0: 08f6 ca3e 51bd 533e a18a 393e 7245 f5bd
000000d0: 1e4d 94bd 1ae1 fdbd 5e78 063e 48af d53d
000000e0: d104 0c3f 2e53 053f dd79 503d 77e7 53bf
000000f0: fdd2 df3e 5d33 bfbe e21e a7be 5c6f f8bd
0.0020260897 -0.09024322 0.6163795 -0.0817516 0.24501966 -0.048750937 0.1306904 -0.029005347
-0.14292467 0.3067921 -0.039929364 -0.25241372 0.099880524 -0.23257008 0.035299268 -0.09038847
0.11384522 -0.030654619 -0.010815826 -0.021520028 0.055418484 0.13820423 0.036169827 -0.45108038
0.005615352 -0.024593562 -0.42962852 -0.1458079 0.38133118 -0.035883076 0.11842624 -0.35273108
-0.023868944 -0.023453461 0.6499452 -0.06343034 -0.015204361 -0.22846706 0.09405902 -0.5053168
0.19064724 0.09444505 0.34063238 -0.083260894 0.19241905 -0.19527888 -0.04207251 -0.16063567
0.39640832 0.20677687 0.18119289 -0.11976136 -0.072412714 -0.1239645 0.13131854 0.10433823
0.5469485 0.5208005 0.050897468 -0.8277506 0.4371566 -0.37343875 -0.3264075 -0.12130615

features.5.weight f4 [128, 64, 3, 3]
00000000: c4a2 80bd 39c8 393c 3a71 25bd 7581 53bd
00000010: 2fd3 69bd d980 01be cc7e 62bc d881 5dbd
00000020: 3674 a9bd a25f 52bd 7994 09bd 67ce f6bc
00000030: e0fe 02bd d8ee 0fbd 74ef 1e3b af7e 89bb
00000040: 116c 66bc ba83 5f3c 843d ecbc 538c 553d
00000050: 115f 543d 9828 19bd b302 133e 0b67 10bd
00000060: 4ac4 efbc 3907 b03c f900 02bd 098b 073c
00000070: 912c 173a 72d4 2dbc ea9a 483c ed6f 633b
00000080: 3d25 d33c f1da fbbc 3ba7 cfbc 7b24 6e3b
00000090: e14c 09bd 4808 573d fafa 293b 6c38 fabb
000000a0: f8a8 703d b5bb 96bc c86a a23c 922a f23b
000000b0: b86b 5b3d 6094 1e3d daf0 173d c2ac f43b
000000c0: ddbe 9c3c 4610 973d e5dc d63c 130a d83c
000000d0: 0cfb 273c efe9 843d f491 69bd ca69 e63b
000000e0: f2ce c2bc b91f 82bd 4c96 bdbc ae2e 38bd
000000f0: b314 c0bc a317 babc 0587 99bc 5fa5 d43b
00000100: f410 493d 23ee c33c d125 d33c 502f 713d
00000110: 2b16 633d 4bf9 20bc de32 cd3c 7130 6d3d
00000120: 46af f93b 24f4 a0bc 905c 443c 7d4b 193d
00000130: cdd3 6c3d 502f b2ba 292d a3bc c685 4e3c
00000140: 5c65 23bd 3ac9 41bd a1fd eb3c 4502 a13c
00000150: 00da aebd 0cbb c4bc 5ce4 d2bc 3393 c3bd
00000160: a302 6bbd 59a5 12bd de42 3e3b 2f20 7fbc
00000170: 18ad 15bc e366 18bd 0d7b a33b 2943 c1bc
00000180: 4888 2fbd 0373 c53c e6b1 78bc ee5a a1bb
00000190: 54c1 2c3d 0617 323c 95e1 d53b f434 c63d
000001a0: 8e8f 86bc 3389 333c 21e1 983d 2211 83bc
000001b0: 3ee7 12bd 2843 9ebd 1829 8cbd cf44 07bd
000001c0: e5f5 a2bd 8564 4bbd 5cdc 16bd 8340 333c
000001d0: a387 6abd 5889 b4bc 16e8 24bd 0cb0 f1bc
000001e0: dd06 bcbc de46 febc 2596 c63b b40e 18bd
000001f0: 5535 afbb 1566 543d 22bb 98bc 88de 883d
00000200: ff4b 26bd 72c3 89bb 2643 d13d 864b e3bc
00000210: e3a2 00bd ddd4 0d3e 3cd4 86bc fc74 083d
00000220: 50a7 af3c 8584 8fbb dde1 07bd 9863 3bbc
00000230: 04a9 bfbc a2f3 3cbd 9f0c 43bd d9b8 17bd
00000240: a150 b23b d2d4 c33c dd44 4bbc 22ed 95b8
00000250: bfe9 12bc cd91 14bd 6713 86bc e118 193c
00000260: bd54 9fbc e1c1 d93c adcb 3c3c 9b43 a53c
00000270: 9685 6c3d 0d54 2d3d d205 f13b d7e3 0b3d
00000280: 988f 393d 501d d2bc bfac 963b a7c1 f03c
00000290: 339c 013d 1fd9 b63c f082 61bd bf7d 2cbd
000002a0: 50d3 953c cfb3 a63c baf9 1fbd 78d4 d33c
000002b0: 2fc4 963c edb1 263c 9cf7 5d3c d6ad 993b
000002c0: 8de7 5b3b d6c3 f9b8 90f5 0cbd 4461 90bc
000002d0: 7210 fbbb 2566 733b d827 e43a a7c2 17bd
000002e0: 289d a5bc 9d54 a3bc f872 93bd 8f15 2cbd
000002f0: 3b46 70bd 7712 6dbd 9080 babc 15e2 4fbd
00000300: 368b 25bd 2f95 63bd 6a73 93bd 5349 22bd
00000310: 538a 53bd 01ac 77bd d9fd 75bc 4374 debc
00000320: ddc5 b3bd 6c36 17bc 5757 9fbd afed 9cbd
00000330: f1a0 22bd 4d08 9cbd 1a19 54bd 28ff 953c
00000340: e412 82bc 5310 a1bc 700c 2e3d 28f7 a9bc
00000350: 8898 97bc 68fe 343d 6afa debb 1d09 0abd
00000360: 8114 64ba 2181 4b3d 9edf b73c d0fb 823c
00000370: ebd5 ca3c c303 ef3b 8385 95bc 51bc fa3c
00000380: 183e 073d 1840 6abd 58b8 c0bc 7d69 5abd
00000390: 158e 0abd ebae f2bc a2b1 62bd a645 ddbc
000003a0: 5f34 1cbd 7842 2bbd 492d 853a 603e 1c3c
000003b0: 47b2 d9bc b431 f43d 98c3 1b3e 568c 7d3d
000003c0: 85dc 293e 253f 523e 693a 9e3d ce24 4a3d
000003d0: cfc2 b83d f9af 933d 843e 2f3d 3b02 113e
000003e0: 62eb 733c c0d7 3b3d 9aae 023e 1d16 363c
000003f0: 3e97 1abb 5133 973c 460d f5bb 3f68 a13c
-0.06281045 0.011339241 -0.040391184 -0.05163713 -0.057086166 -0.12646808 -0.013824176 -0.054078907
-0.082741186 -0.051360734 -0.03358886 -0.030127717 -0.03198135 -0.03513989 0.0024251612 -0.00419601
-0.014063851 0.013642246 -0.028837927 0.052135777 0.051848475 -0.03739223 0.14356498 -0.03525452
-0.029268403 0.021487819 -0.03173921 0.008272895 0.0005766834 -0.010609733 0.012243966 0.0034704164
0.025774593 -0.030744048 -0.025348296 0.0036337662 -0.033520583 0.052498132 0.0025936947 -0.0076361205
0.05875489 -0.018400053 0.019826308 0.0073903287 0.053569525 0.03871572 0.03709493 0.0074668834
0.01913398 0.07376151 0.026228378 0.026371991 0.010252725 0.06489932 -0.057023957 0.007031654
-0.02378032 -0.06353707 -0.023142956 -0.044966392 -0.02344737 -0.022716349 -0.01874114 0.0064894403
0.049088433 0.023917263 0.025774868 0.05888301 0.055441063 -0.009825061 0.02504867 0.057907525
0.007619771 -0.019647665 0.011984959 0.037425507 0.057819176 -0.0013594422 -0.019918995 0.012605136
-0.039891586 -0.047311045 0.028807463 0.019654403 -0.08537674 -0.024014972 -0.025743656 -0.095495604
-0.05737556 -0.03580222 0.0029031555 -0.015571638 -0.009135507 -0.037207495 0.004989034 -0.023591595
-0.042854577 0.024102693 -0.015179133 -0.0049241697 0.04217656 0.010869747 0.0065271356 0.09678069
-0.016425874 0.010958004 0.07464815 -0.01599938 -0.03586506 -0.07727653 -0.068437755 -0.033024605
-0.07957057 -0.04965641 -0.036831245 0.010940674 -0.05725826 -0.022038147 -0.040260397 -0.029502891
-0.022952491 -0.031039651 0.006060379 -0.037123397 -0.005346934 0.051855166 -0.01864392 0.066830695
-0.04059982 -0.004204207 0.10217886 -0.027745973 -0.03140534 0.13850732 -0.016458623 0.03331469
0.021442086 -0.004379811 -0.033174384 -0.011437319 -0.023396023 -0.046130784 -0.04761946 -0.03704152
0.0054417406 0.023905192 -0.012406555 -7.149043e-05 -0.008966862 -0.03627186 -0.016366674 0.0093443105
-0.019449586 0.026581706 0.011523169 0.020173838 0.057744585 0.042316485 0.00735543 0.034152832
0.045302957 -0.025648743 0.0045982297 0.029389216 0.031643104 0.022320328 -0.055056512 -0.04211211
0.018289238 0.020349411 -0.039056517 0.025858149 0.018404095 0.010174257 0.013547804 0.0046899123
0.0033554763 -0.000119097225 -0.034413874 -0.017624505 -0.0076618725 0.003713974 0.0017406894 -0.03705087
-0.02021654 -0.019937808 -0.07199663 -0.042012747 -0.058660727 -0.057878938 -0.022766382 -0.050752718
-0.040415965 -0.055562194 -0.07199748 -0.03962071 -0.051645588 -0.06046677 -0.015014135 -0.027155047
-0.08777974 -0.009229284 -0.07780331 -0.07662522 -0.039704267 -0.07618771 -0.05178175 0.018310145
-0.015878148 -0.019661104 0.04249233 -0.020747736 -0.01850535 0.044187933 -0.006804754 -0.033700097
-0.0008700565 0.049683694 0.022445496 0.015989214 0.024760207 0.0072941496 -0.01825214 0.030607374
0.0330182 -0.05719003 -0.023525402 -0.053323258 -0.033826906 -0.029624423 -0.055345185 -0.02701075
-0.038135882 -0.041811436 0.0010160591 0.009536356 -0.026574267 0.119235426 0.15211332 0.061901413
0.16588028 0.205319 0.077259846 0.049351506 0.09021532 0.072112985 0.04278423 0.14161007
0.014887663 0.045860052 0.12761918 0.011113671 -0.0023588683 0.018457087 -0.007478389 0.019703029

features.5.bias f4 [128]
00000000: 9673 b13d 459d 94bc ec68 093e 4da8 b13c
00000010: f22f 803d d307 99bd 4c88 073d d225 b93d
00000020: 57d0 3b3e 2394 983d 6865 753d c8cb 6abc
00000030: 3f22 2f3e 79bc cd3b 4a6a 0f3d 866a 373e
00000040: 0649 71bd a811 023e d96f 373e c729 733e
00000050: 4166 993c c826 edbc 34f2 3f3e 122f 233d
00000060: 690d 163e 3398 b33c 12ff d63d 1c80 113e
00000070: 2a65 91bd 9848 96bc b138 b63d 95b1 693d
00000080: d237 0e3e 8a2d 553e 16a9 dc3d 5aeb ae3d
00000090: 227d 8c3c cdca 8a3e 7a6b b23d 722f 733d
000000a0: 8f1f a23e 1895 57bd d563 1a3e 7b3c 833d
000000b0: 7542 343e b160 2e3e 4856 84bd 7b6d 0b3e
000000c0: 3eff 883c e2e8 8abd 6725 813d 71c9 183e
000000d0: ca2e d73d 01e1 433d 5d90 8d3e 2728 943d
000000e0: 2128 01be 665e 273e 3d24 84bd fac6 00bc
000000f0: 6f36 133e a951 253e 1efa d03c 72aa f03d
00000100: 1de5 b5bd 8bbb 633e 6670 643d c378 6b3c
00000110: b875 283e 4e97 4bbe 23d3 4739 bcc8 bb3c
00000120: 39ba 30be af4c a63d 238f 1b3d 5d92 e2bd
00000130: 742f 8c3d a45e 5a3d 632b b63b 26ca 8b3d
00000140: 483f 83be 6563 a63d a6d1 8dbd 7b6d 5f3d
00000150: 5656 75bd fc26 f63d b427 30be c953 913d
00000160: 57b2 fd3c b983 a5bd 80fb 513d c526 53be
00000170: cf24 473e 9e40 b6bd 346e b0bd 4ffb 2e3e
00000180: 9a0e 273e 61e3 663e 4088 0b3e 047e edbc
00000190: 6fc5 aebd 2c7f d0ba fa85 523c 9570 9cbd
000001a0: fe6d c0bc b3fd 063d 697f 293e b64e b0bc
000001b0: 9453 25bc ffa3 003e 48f9 4c3e 6cd3 293e
000001c0: 59a8 cc3c fe66 b93d 8493 223e 7202 11be
000001d0: 0c8c b43d 6ede 483d a791 9fbd 4f94 053e
000001e0: 5a03 a93d 98e4 523e e47b 993d 8e63 1fbc
000001f0: 2870 31bc a358 983d c408 983d 534d 143e
0.086646244 -0.018141398 0.13418931 0.021686697 0.06259145 -0.074721955 0.033088967 0.09040417
0.18341194 0.0745013 0.05991116 -0.014330812 0.17102908 0.006278571 0.035013475 0.17911729
-0.05890753 0.12702048 0.1791376 0.23746406 0.018725516 -0.028949156 0.18744737 0.03983981
0.14653553 0.02192316 0.104978696 0.14209026 -0.07099374 -0.018345162 0.08897532 0.05705412
0.13888481 0.20818153 0.10774438 0.085409835 0.017149512 0.2710785 0.08711906 0.05937142
0.31664702 -0.05263242 0.15077145 0.0640802 0.17603476 0.17029072 -0.06461769 0.13615982
0.016723271 -0.067827 0.06305962 0.14920594 0.10506971 0.047822002 0.27649203 0.07234221
-0.12612964 0.16344604 -0.064522244 -0.00785994 0.14376234 0.16144432 0.02550989 0.1175126
-0.088815905 0.2223951 0.055771254 0.014372054 0.16451156 -0.19881937 0.00019056773 0.022922866
-0.17258538 0.08120095 0.037978303 -0.11063073 0.068449885 0.053312913 0.0055593713 0.06825666
-0.25634217 0.08124427 -0.06924753 0.054547768 -0.05989679 0.120191544 -0.17202646 0.07096059
0.030968828 -0.08081765 0.05126524 -0.20620258 0.19447635 -0.088990435 -0.086147696 0.17088054
0.16314164 0.22547676 0.13626194 -0.028990753 -0.08533751 -0.0015907041 0.012849325 -0.07638661
-0.023489948 0.03295679 0.1655251 -0.021521907 -0.010090727 0.1256256 0.20016968 0.16584557
0.024982618 0.09052847 0.15876585 -0.14161089 0.08815774 0.04904025 -0.07791453 0.13044856
0.082525924 0.20595014 0.074943334 -0.0097283255 -0.010829963 0.07438781 0.07423547 0.14482622
